<?xml version="1.0" ?>
<net name="torch-jit-export" version="11">
	<layers>
		<layer id="0" name="image" type="Parameter" version="opset1">
			<data shape="1,3,736,992" element_type="f32"/>
			<rt_info>
				<attribute name="fused_names" version="0" value="image"/>
			</rt_info>
			<output>
				<port id="0" precision="FP32" names="image">
					<dim>1</dim>
					<dim>3</dim>
					<dim>736</dim>
					<dim>992</dim>
				</port>
			</output>
		</layer>
		<layer id="1" name="1265" type="Const" version="opset1">
			<data element_type="f32" shape="1, 1, 4" offset="0" size="16"/>
			<rt_info>
				<attribute name="fused_names" version="0" value="1265"/>
			</rt_info>
			<output>
				<port id="0" precision="FP32" names="1265">
					<dim>1</dim>
					<dim>1</dim>
					<dim>4</dim>
				</port>
			</output>
		</layer>
		<layer id="2" name="3097" type="Const" version="opset1">
			<data element_type="i64" shape="" offset="16" size="8"/>
			<rt_info>
				<attribute name="fused_names" version="0" value="3097"/>
			</rt_info>
			<output>
				<port id="0" precision="I64" names="3097"/>
			</output>
		</layer>
		<layer id="3" name="Constant_15063" type="Const" version="opset1">
			<data element_type="f32" shape="1, 3, 1, 1" offset="24" size="12"/>
			<rt_info>
				<attribute name="fused_names" version="0" value="Constant_15063"/>
			</rt_info>
			<output>
				<port id="0" precision="FP32">
					<dim>1</dim>
					<dim>3</dim>
					<dim>1</dim>
					<dim>1</dim>
				</port>
			</output>
		</layer>
		<layer id="4" name="Subtract_15064" type="Subtract" version="opset1">
			<data auto_broadcast="numpy"/>
			<rt_info>
				<attribute name="fused_names" version="0" value="Subtract_15064"/>
				<attribute name="preprocessing" version="0"/>
			</rt_info>
			<input>
				<port id="0" precision="FP32">
					<dim>1</dim>
					<dim>3</dim>
					<dim>736</dim>
					<dim>992</dim>
				</port>
				<port id="1" precision="FP32">
					<dim>1</dim>
					<dim>3</dim>
					<dim>1</dim>
					<dim>1</dim>
				</port>
			</input>
			<output>
				<port id="2" precision="FP32">
					<dim>1</dim>
					<dim>3</dim>
					<dim>736</dim>
					<dim>992</dim>
				</port>
			</output>
		</layer>
		<layer id="5" name="Constant_46730" type="Const" version="opset1">
			<data element_type="f32" shape="1, 3, 1, 1" offset="36" size="12"/>
			<output>
				<port id="0" precision="FP32">
					<dim>1</dim>
					<dim>3</dim>
					<dim>1</dim>
					<dim>1</dim>
				</port>
			</output>
		</layer>
		<layer id="6" name="Divide_15066" type="Multiply" version="opset1">
			<data auto_broadcast="numpy"/>
			<rt_info>
				<attribute name="fused_names" version="0" value="Constant_15065, Divide_15066"/>
				<attribute name="preprocessing" version="0"/>
			</rt_info>
			<input>
				<port id="0" precision="FP32">
					<dim>1</dim>
					<dim>3</dim>
					<dim>736</dim>
					<dim>992</dim>
				</port>
				<port id="1" precision="FP32">
					<dim>1</dim>
					<dim>3</dim>
					<dim>1</dim>
					<dim>1</dim>
				</port>
			</input>
			<output>
				<port id="2" precision="FP32">
					<dim>1</dim>
					<dim>3</dim>
					<dim>736</dim>
					<dim>992</dim>
				</port>
			</output>
		</layer>
		<layer id="7" name="2862" type="Const" version="opset1">
			<data element_type="f32" shape="32, 3, 3, 3" offset="48" size="3456"/>
			<rt_info>
				<attribute name="fused_names" version="0" value="2862"/>
			</rt_info>
			<output>
				<port id="0" precision="FP32" names="2862">
					<dim>32</dim>
					<dim>3</dim>
					<dim>3</dim>
					<dim>3</dim>
				</port>
			</output>
		</layer>
		<layer id="8" name="Convolution_874" type="Convolution" version="opset1">
			<data strides="2, 2" dilations="1, 1" pads_begin="1, 1" pads_end="1, 1" auto_pad="explicit"/>
			<rt_info>
				<attribute name="fused_names" version="0" value="Convolution_874"/>
			</rt_info>
			<input>
				<port id="0" precision="FP32">
					<dim>1</dim>
					<dim>3</dim>
					<dim>736</dim>
					<dim>992</dim>
				</port>
				<port id="1" precision="FP32">
					<dim>32</dim>
					<dim>3</dim>
					<dim>3</dim>
					<dim>3</dim>
				</port>
			</input>
			<output>
				<port id="2" precision="FP32">
					<dim>1</dim>
					<dim>32</dim>
					<dim>368</dim>
					<dim>496</dim>
				</port>
			</output>
		</layer>
		<layer id="9" name="Reshape_894" type="Const" version="opset1">
			<data element_type="f32" shape="1, 32, 1, 1" offset="3504" size="128"/>
			<output>
				<port id="0" precision="FP32">
					<dim>1</dim>
					<dim>32</dim>
					<dim>1</dim>
					<dim>1</dim>
				</port>
			</output>
		</layer>
		<layer id="10" name="2861" type="Add" version="opset1">
			<data auto_broadcast="numpy"/>
			<rt_info>
				<attribute name="fused_names" version="0" value="2861, Concat_893, Reshape_894"/>
			</rt_info>
			<input>
				<port id="0" precision="FP32">
					<dim>1</dim>
					<dim>32</dim>
					<dim>368</dim>
					<dim>496</dim>
				</port>
				<port id="1" precision="FP32">
					<dim>1</dim>
					<dim>32</dim>
					<dim>1</dim>
					<dim>1</dim>
				</port>
			</input>
			<output>
				<port id="2" precision="FP32" names="2861">
					<dim>1</dim>
					<dim>32</dim>
					<dim>368</dim>
					<dim>496</dim>
				</port>
			</output>
		</layer>
		<layer id="11" name="374" type="Clamp" version="opset1">
			<data min="0" max="6"/>
			<rt_info>
				<attribute name="fused_names" version="0" value="374, Maximum_922"/>
			</rt_info>
			<input>
				<port id="0" precision="FP32">
					<dim>1</dim>
					<dim>32</dim>
					<dim>368</dim>
					<dim>496</dim>
				</port>
			</input>
			<output>
				<port id="1" precision="FP32" names="374">
					<dim>1</dim>
					<dim>32</dim>
					<dim>368</dim>
					<dim>496</dim>
				</port>
			</output>
		</layer>
		<layer id="12" name="2865" type="Const" version="opset1">
			<data element_type="f32" shape="32, 32, 1, 1" offset="3632" size="4096"/>
			<rt_info>
				<attribute name="fused_names" version="0" value="2865"/>
			</rt_info>
			<output>
				<port id="0" precision="FP32" names="2865">
					<dim>32</dim>
					<dim>32</dim>
					<dim>1</dim>
					<dim>1</dim>
				</port>
			</output>
		</layer>
		<layer id="13" name="Convolution_924" type="Convolution" version="opset1">
			<data strides="1, 1" dilations="1, 1" pads_begin="0, 0" pads_end="0, 0" auto_pad="explicit"/>
			<rt_info>
				<attribute name="fused_names" version="0" value="Convolution_924"/>
			</rt_info>
			<input>
				<port id="0" precision="FP32">
					<dim>1</dim>
					<dim>32</dim>
					<dim>368</dim>
					<dim>496</dim>
				</port>
				<port id="1" precision="FP32">
					<dim>32</dim>
					<dim>32</dim>
					<dim>1</dim>
					<dim>1</dim>
				</port>
			</input>
			<output>
				<port id="2" precision="FP32">
					<dim>1</dim>
					<dim>32</dim>
					<dim>368</dim>
					<dim>496</dim>
				</port>
			</output>
		</layer>
		<layer id="14" name="Reshape_944" type="Const" version="opset1">
			<data element_type="f32" shape="1, 32, 1, 1" offset="7728" size="128"/>
			<output>
				<port id="0" precision="FP32">
					<dim>1</dim>
					<dim>32</dim>
					<dim>1</dim>
					<dim>1</dim>
				</port>
			</output>
		</layer>
		<layer id="15" name="2864" type="Add" version="opset1">
			<data auto_broadcast="numpy"/>
			<rt_info>
				<attribute name="fused_names" version="0" value="2864, Concat_943, Reshape_944"/>
			</rt_info>
			<input>
				<port id="0" precision="FP32">
					<dim>1</dim>
					<dim>32</dim>
					<dim>368</dim>
					<dim>496</dim>
				</port>
				<port id="1" precision="FP32">
					<dim>1</dim>
					<dim>32</dim>
					<dim>1</dim>
					<dim>1</dim>
				</port>
			</input>
			<output>
				<port id="2" precision="FP32" names="2864">
					<dim>1</dim>
					<dim>32</dim>
					<dim>368</dim>
					<dim>496</dim>
				</port>
			</output>
		</layer>
		<layer id="16" name="379" type="Clamp" version="opset1">
			<data min="0" max="6"/>
			<rt_info>
				<attribute name="fused_names" version="0" value="379, Maximum_972"/>
			</rt_info>
			<input>
				<port id="0" precision="FP32">
					<dim>1</dim>
					<dim>32</dim>
					<dim>368</dim>
					<dim>496</dim>
				</port>
			</input>
			<output>
				<port id="1" precision="FP32" names="379">
					<dim>1</dim>
					<dim>32</dim>
					<dim>368</dim>
					<dim>496</dim>
				</port>
			</output>
		</layer>
		<layer id="17" name="Reshape_981" type="Const" version="opset1">
			<data element_type="f32" shape="32, 1, 1, 3, 3" offset="7856" size="1152"/>
			<output>
				<port id="0" precision="FP32">
					<dim>32</dim>
					<dim>1</dim>
					<dim>1</dim>
					<dim>3</dim>
					<dim>3</dim>
				</port>
			</output>
		</layer>
		<layer id="18" name="GroupConvolution_1047" type="GroupConvolution" version="opset1">
			<data strides="1, 1" pads_begin="1, 1" pads_end="1, 1" dilations="1, 1" auto_pad="explicit"/>
			<rt_info>
				<attribute name="fused_names" version="0" value="GroupConvolution_1047, Reshape_981"/>
			</rt_info>
			<input>
				<port id="0" precision="FP32">
					<dim>1</dim>
					<dim>32</dim>
					<dim>368</dim>
					<dim>496</dim>
				</port>
				<port id="1" precision="FP32">
					<dim>32</dim>
					<dim>1</dim>
					<dim>1</dim>
					<dim>3</dim>
					<dim>3</dim>
				</port>
			</input>
			<output>
				<port id="2" precision="FP32">
					<dim>1</dim>
					<dim>32</dim>
					<dim>368</dim>
					<dim>496</dim>
				</port>
			</output>
		</layer>
		<layer id="19" name="Reshape_1067" type="Const" version="opset1">
			<data element_type="f32" shape="1, 32, 1, 1" offset="9008" size="128"/>
			<output>
				<port id="0" precision="FP32">
					<dim>1</dim>
					<dim>32</dim>
					<dim>1</dim>
					<dim>1</dim>
				</port>
			</output>
		</layer>
		<layer id="20" name="2867" type="Add" version="opset1">
			<data auto_broadcast="numpy"/>
			<rt_info>
				<attribute name="fused_names" version="0" value="2867, Concat_1066, Reshape_1067"/>
			</rt_info>
			<input>
				<port id="0" precision="FP32">
					<dim>1</dim>
					<dim>32</dim>
					<dim>368</dim>
					<dim>496</dim>
				</port>
				<port id="1" precision="FP32">
					<dim>1</dim>
					<dim>32</dim>
					<dim>1</dim>
					<dim>1</dim>
				</port>
			</input>
			<output>
				<port id="2" precision="FP32" names="2867">
					<dim>1</dim>
					<dim>32</dim>
					<dim>368</dim>
					<dim>496</dim>
				</port>
			</output>
		</layer>
		<layer id="21" name="384" type="Clamp" version="opset1">
			<data min="0" max="6"/>
			<rt_info>
				<attribute name="fused_names" version="0" value="384, Maximum_1095"/>
			</rt_info>
			<input>
				<port id="0" precision="FP32">
					<dim>1</dim>
					<dim>32</dim>
					<dim>368</dim>
					<dim>496</dim>
				</port>
			</input>
			<output>
				<port id="1" precision="FP32" names="384">
					<dim>1</dim>
					<dim>32</dim>
					<dim>368</dim>
					<dim>496</dim>
				</port>
			</output>
		</layer>
		<layer id="22" name="2871" type="Const" version="opset1">
			<data element_type="f32" shape="16, 32, 1, 1" offset="9136" size="2048"/>
			<rt_info>
				<attribute name="fused_names" version="0" value="2871"/>
			</rt_info>
			<output>
				<port id="0" precision="FP32" names="2871">
					<dim>16</dim>
					<dim>32</dim>
					<dim>1</dim>
					<dim>1</dim>
				</port>
			</output>
		</layer>
		<layer id="23" name="Convolution_1097" type="Convolution" version="opset1">
			<data strides="1, 1" dilations="1, 1" pads_begin="0, 0" pads_end="0, 0" auto_pad="explicit"/>
			<rt_info>
				<attribute name="fused_names" version="0" value="Convolution_1097"/>
			</rt_info>
			<input>
				<port id="0" precision="FP32">
					<dim>1</dim>
					<dim>32</dim>
					<dim>368</dim>
					<dim>496</dim>
				</port>
				<port id="1" precision="FP32">
					<dim>16</dim>
					<dim>32</dim>
					<dim>1</dim>
					<dim>1</dim>
				</port>
			</input>
			<output>
				<port id="2" precision="FP32">
					<dim>1</dim>
					<dim>16</dim>
					<dim>368</dim>
					<dim>496</dim>
				</port>
			</output>
		</layer>
		<layer id="24" name="Reshape_1117" type="Const" version="opset1">
			<data element_type="f32" shape="1, 16, 1, 1" offset="11184" size="64"/>
			<output>
				<port id="0" precision="FP32">
					<dim>1</dim>
					<dim>16</dim>
					<dim>1</dim>
					<dim>1</dim>
				</port>
			</output>
		</layer>
		<layer id="25" name="2870" type="Add" version="opset1">
			<data auto_broadcast="numpy"/>
			<rt_info>
				<attribute name="fused_names" version="0" value="2870, Concat_1116, Reshape_1117"/>
			</rt_info>
			<input>
				<port id="0" precision="FP32">
					<dim>1</dim>
					<dim>16</dim>
					<dim>368</dim>
					<dim>496</dim>
				</port>
				<port id="1" precision="FP32">
					<dim>1</dim>
					<dim>16</dim>
					<dim>1</dim>
					<dim>1</dim>
				</port>
			</input>
			<output>
				<port id="2" precision="FP32" names="2870">
					<dim>1</dim>
					<dim>16</dim>
					<dim>368</dim>
					<dim>496</dim>
				</port>
			</output>
		</layer>
		<layer id="26" name="2874" type="Const" version="opset1">
			<data element_type="f32" shape="96, 16, 1, 1" offset="11248" size="6144"/>
			<rt_info>
				<attribute name="fused_names" version="0" value="2874"/>
			</rt_info>
			<output>
				<port id="0" precision="FP32" names="2874">
					<dim>96</dim>
					<dim>16</dim>
					<dim>1</dim>
					<dim>1</dim>
				</port>
			</output>
		</layer>
		<layer id="27" name="Convolution_1145" type="Convolution" version="opset1">
			<data strides="1, 1" dilations="1, 1" pads_begin="0, 0" pads_end="0, 0" auto_pad="explicit"/>
			<rt_info>
				<attribute name="fused_names" version="0" value="Convolution_1145"/>
			</rt_info>
			<input>
				<port id="0" precision="FP32">
					<dim>1</dim>
					<dim>16</dim>
					<dim>368</dim>
					<dim>496</dim>
				</port>
				<port id="1" precision="FP32">
					<dim>96</dim>
					<dim>16</dim>
					<dim>1</dim>
					<dim>1</dim>
				</port>
			</input>
			<output>
				<port id="2" precision="FP32">
					<dim>1</dim>
					<dim>96</dim>
					<dim>368</dim>
					<dim>496</dim>
				</port>
			</output>
		</layer>
		<layer id="28" name="Reshape_1165" type="Const" version="opset1">
			<data element_type="f32" shape="1, 96, 1, 1" offset="17392" size="384"/>
			<output>
				<port id="0" precision="FP32">
					<dim>1</dim>
					<dim>96</dim>
					<dim>1</dim>
					<dim>1</dim>
				</port>
			</output>
		</layer>
		<layer id="29" name="2873" type="Add" version="opset1">
			<data auto_broadcast="numpy"/>
			<rt_info>
				<attribute name="fused_names" version="0" value="2873, Concat_1164, Reshape_1165"/>
			</rt_info>
			<input>
				<port id="0" precision="FP32">
					<dim>1</dim>
					<dim>96</dim>
					<dim>368</dim>
					<dim>496</dim>
				</port>
				<port id="1" precision="FP32">
					<dim>1</dim>
					<dim>96</dim>
					<dim>1</dim>
					<dim>1</dim>
				</port>
			</input>
			<output>
				<port id="2" precision="FP32" names="2873">
					<dim>1</dim>
					<dim>96</dim>
					<dim>368</dim>
					<dim>496</dim>
				</port>
			</output>
		</layer>
		<layer id="30" name="391" type="Clamp" version="opset1">
			<data min="0" max="6"/>
			<rt_info>
				<attribute name="fused_names" version="0" value="391, Maximum_1193"/>
			</rt_info>
			<input>
				<port id="0" precision="FP32">
					<dim>1</dim>
					<dim>96</dim>
					<dim>368</dim>
					<dim>496</dim>
				</port>
			</input>
			<output>
				<port id="1" precision="FP32" names="391">
					<dim>1</dim>
					<dim>96</dim>
					<dim>368</dim>
					<dim>496</dim>
				</port>
			</output>
		</layer>
		<layer id="31" name="Reshape_1202" type="Const" version="opset1">
			<data element_type="f32" shape="96, 1, 1, 3, 3" offset="17776" size="3456"/>
			<output>
				<port id="0" precision="FP32">
					<dim>96</dim>
					<dim>1</dim>
					<dim>1</dim>
					<dim>3</dim>
					<dim>3</dim>
				</port>
			</output>
		</layer>
		<layer id="32" name="GroupConvolution_1268" type="GroupConvolution" version="opset1">
			<data strides="2, 2" pads_begin="1, 1" pads_end="1, 1" dilations="1, 1" auto_pad="explicit"/>
			<rt_info>
				<attribute name="fused_names" version="0" value="GroupConvolution_1268, Reshape_1202"/>
			</rt_info>
			<input>
				<port id="0" precision="FP32">
					<dim>1</dim>
					<dim>96</dim>
					<dim>368</dim>
					<dim>496</dim>
				</port>
				<port id="1" precision="FP32">
					<dim>96</dim>
					<dim>1</dim>
					<dim>1</dim>
					<dim>3</dim>
					<dim>3</dim>
				</port>
			</input>
			<output>
				<port id="2" precision="FP32">
					<dim>1</dim>
					<dim>96</dim>
					<dim>184</dim>
					<dim>248</dim>
				</port>
			</output>
		</layer>
		<layer id="33" name="Reshape_1288" type="Const" version="opset1">
			<data element_type="f32" shape="1, 96, 1, 1" offset="21232" size="384"/>
			<output>
				<port id="0" precision="FP32">
					<dim>1</dim>
					<dim>96</dim>
					<dim>1</dim>
					<dim>1</dim>
				</port>
			</output>
		</layer>
		<layer id="34" name="2876" type="Add" version="opset1">
			<data auto_broadcast="numpy"/>
			<rt_info>
				<attribute name="fused_names" version="0" value="2876, Concat_1287, Reshape_1288"/>
			</rt_info>
			<input>
				<port id="0" precision="FP32">
					<dim>1</dim>
					<dim>96</dim>
					<dim>184</dim>
					<dim>248</dim>
				</port>
				<port id="1" precision="FP32">
					<dim>1</dim>
					<dim>96</dim>
					<dim>1</dim>
					<dim>1</dim>
				</port>
			</input>
			<output>
				<port id="2" precision="FP32" names="2876">
					<dim>1</dim>
					<dim>96</dim>
					<dim>184</dim>
					<dim>248</dim>
				</port>
			</output>
		</layer>
		<layer id="35" name="396" type="Clamp" version="opset1">
			<data min="0" max="6"/>
			<rt_info>
				<attribute name="fused_names" version="0" value="396, Maximum_1316"/>
			</rt_info>
			<input>
				<port id="0" precision="FP32">
					<dim>1</dim>
					<dim>96</dim>
					<dim>184</dim>
					<dim>248</dim>
				</port>
			</input>
			<output>
				<port id="1" precision="FP32" names="396">
					<dim>1</dim>
					<dim>96</dim>
					<dim>184</dim>
					<dim>248</dim>
				</port>
			</output>
		</layer>
		<layer id="36" name="2880" type="Const" version="opset1">
			<data element_type="f32" shape="24, 96, 1, 1" offset="21616" size="9216"/>
			<rt_info>
				<attribute name="fused_names" version="0" value="2880"/>
			</rt_info>
			<output>
				<port id="0" precision="FP32" names="2880">
					<dim>24</dim>
					<dim>96</dim>
					<dim>1</dim>
					<dim>1</dim>
				</port>
			</output>
		</layer>
		<layer id="37" name="Convolution_1318" type="Convolution" version="opset1">
			<data strides="1, 1" dilations="1, 1" pads_begin="0, 0" pads_end="0, 0" auto_pad="explicit"/>
			<rt_info>
				<attribute name="fused_names" version="0" value="Convolution_1318"/>
			</rt_info>
			<input>
				<port id="0" precision="FP32">
					<dim>1</dim>
					<dim>96</dim>
					<dim>184</dim>
					<dim>248</dim>
				</port>
				<port id="1" precision="FP32">
					<dim>24</dim>
					<dim>96</dim>
					<dim>1</dim>
					<dim>1</dim>
				</port>
			</input>
			<output>
				<port id="2" precision="FP32">
					<dim>1</dim>
					<dim>24</dim>
					<dim>184</dim>
					<dim>248</dim>
				</port>
			</output>
		</layer>
		<layer id="38" name="Reshape_1338" type="Const" version="opset1">
			<data element_type="f32" shape="1, 24, 1, 1" offset="30832" size="96"/>
			<output>
				<port id="0" precision="FP32">
					<dim>1</dim>
					<dim>24</dim>
					<dim>1</dim>
					<dim>1</dim>
				</port>
			</output>
		</layer>
		<layer id="39" name="2879" type="Add" version="opset1">
			<data auto_broadcast="numpy"/>
			<rt_info>
				<attribute name="fused_names" version="0" value="2879, Concat_1337, Reshape_1338"/>
			</rt_info>
			<input>
				<port id="0" precision="FP32">
					<dim>1</dim>
					<dim>24</dim>
					<dim>184</dim>
					<dim>248</dim>
				</port>
				<port id="1" precision="FP32">
					<dim>1</dim>
					<dim>24</dim>
					<dim>1</dim>
					<dim>1</dim>
				</port>
			</input>
			<output>
				<port id="2" precision="FP32" names="2879">
					<dim>1</dim>
					<dim>24</dim>
					<dim>184</dim>
					<dim>248</dim>
				</port>
			</output>
		</layer>
		<layer id="40" name="2883" type="Const" version="opset1">
			<data element_type="f32" shape="144, 24, 1, 1" offset="30928" size="13824"/>
			<rt_info>
				<attribute name="fused_names" version="0" value="2883"/>
			</rt_info>
			<output>
				<port id="0" precision="FP32" names="2883">
					<dim>144</dim>
					<dim>24</dim>
					<dim>1</dim>
					<dim>1</dim>
				</port>
			</output>
		</layer>
		<layer id="41" name="Convolution_1366" type="Convolution" version="opset1">
			<data strides="1, 1" dilations="1, 1" pads_begin="0, 0" pads_end="0, 0" auto_pad="explicit"/>
			<rt_info>
				<attribute name="fused_names" version="0" value="Convolution_1366"/>
			</rt_info>
			<input>
				<port id="0" precision="FP32">
					<dim>1</dim>
					<dim>24</dim>
					<dim>184</dim>
					<dim>248</dim>
				</port>
				<port id="1" precision="FP32">
					<dim>144</dim>
					<dim>24</dim>
					<dim>1</dim>
					<dim>1</dim>
				</port>
			</input>
			<output>
				<port id="2" precision="FP32">
					<dim>1</dim>
					<dim>144</dim>
					<dim>184</dim>
					<dim>248</dim>
				</port>
			</output>
		</layer>
		<layer id="42" name="Reshape_1386" type="Const" version="opset1">
			<data element_type="f32" shape="1, 144, 1, 1" offset="44752" size="576"/>
			<output>
				<port id="0" precision="FP32">
					<dim>1</dim>
					<dim>144</dim>
					<dim>1</dim>
					<dim>1</dim>
				</port>
			</output>
		</layer>
		<layer id="43" name="2882" type="Add" version="opset1">
			<data auto_broadcast="numpy"/>
			<rt_info>
				<attribute name="fused_names" version="0" value="2882, Concat_1385, Reshape_1386"/>
			</rt_info>
			<input>
				<port id="0" precision="FP32">
					<dim>1</dim>
					<dim>144</dim>
					<dim>184</dim>
					<dim>248</dim>
				</port>
				<port id="1" precision="FP32">
					<dim>1</dim>
					<dim>144</dim>
					<dim>1</dim>
					<dim>1</dim>
				</port>
			</input>
			<output>
				<port id="2" precision="FP32" names="2882">
					<dim>1</dim>
					<dim>144</dim>
					<dim>184</dim>
					<dim>248</dim>
				</port>
			</output>
		</layer>
		<layer id="44" name="403" type="Clamp" version="opset1">
			<data min="0" max="6"/>
			<rt_info>
				<attribute name="fused_names" version="0" value="403, Maximum_1414"/>
			</rt_info>
			<input>
				<port id="0" precision="FP32">
					<dim>1</dim>
					<dim>144</dim>
					<dim>184</dim>
					<dim>248</dim>
				</port>
			</input>
			<output>
				<port id="1" precision="FP32" names="403">
					<dim>1</dim>
					<dim>144</dim>
					<dim>184</dim>
					<dim>248</dim>
				</port>
			</output>
		</layer>
		<layer id="45" name="Reshape_1423" type="Const" version="opset1">
			<data element_type="f32" shape="144, 1, 1, 3, 3" offset="45328" size="5184"/>
			<output>
				<port id="0" precision="FP32">
					<dim>144</dim>
					<dim>1</dim>
					<dim>1</dim>
					<dim>3</dim>
					<dim>3</dim>
				</port>
			</output>
		</layer>
		<layer id="46" name="GroupConvolution_1489" type="GroupConvolution" version="opset1">
			<data strides="1, 1" pads_begin="1, 1" pads_end="1, 1" dilations="1, 1" auto_pad="explicit"/>
			<rt_info>
				<attribute name="fused_names" version="0" value="GroupConvolution_1489, Reshape_1423"/>
			</rt_info>
			<input>
				<port id="0" precision="FP32">
					<dim>1</dim>
					<dim>144</dim>
					<dim>184</dim>
					<dim>248</dim>
				</port>
				<port id="1" precision="FP32">
					<dim>144</dim>
					<dim>1</dim>
					<dim>1</dim>
					<dim>3</dim>
					<dim>3</dim>
				</port>
			</input>
			<output>
				<port id="2" precision="FP32">
					<dim>1</dim>
					<dim>144</dim>
					<dim>184</dim>
					<dim>248</dim>
				</port>
			</output>
		</layer>
		<layer id="47" name="Reshape_1509" type="Const" version="opset1">
			<data element_type="f32" shape="1, 144, 1, 1" offset="50512" size="576"/>
			<output>
				<port id="0" precision="FP32">
					<dim>1</dim>
					<dim>144</dim>
					<dim>1</dim>
					<dim>1</dim>
				</port>
			</output>
		</layer>
		<layer id="48" name="2885" type="Add" version="opset1">
			<data auto_broadcast="numpy"/>
			<rt_info>
				<attribute name="fused_names" version="0" value="2885, Concat_1508, Reshape_1509"/>
			</rt_info>
			<input>
				<port id="0" precision="FP32">
					<dim>1</dim>
					<dim>144</dim>
					<dim>184</dim>
					<dim>248</dim>
				</port>
				<port id="1" precision="FP32">
					<dim>1</dim>
					<dim>144</dim>
					<dim>1</dim>
					<dim>1</dim>
				</port>
			</input>
			<output>
				<port id="2" precision="FP32" names="2885">
					<dim>1</dim>
					<dim>144</dim>
					<dim>184</dim>
					<dim>248</dim>
				</port>
			</output>
		</layer>
		<layer id="49" name="408" type="Clamp" version="opset1">
			<data min="0" max="6"/>
			<rt_info>
				<attribute name="fused_names" version="0" value="408, Maximum_1537"/>
			</rt_info>
			<input>
				<port id="0" precision="FP32">
					<dim>1</dim>
					<dim>144</dim>
					<dim>184</dim>
					<dim>248</dim>
				</port>
			</input>
			<output>
				<port id="1" precision="FP32" names="408">
					<dim>1</dim>
					<dim>144</dim>
					<dim>184</dim>
					<dim>248</dim>
				</port>
			</output>
		</layer>
		<layer id="50" name="2889" type="Const" version="opset1">
			<data element_type="f32" shape="24, 144, 1, 1" offset="51088" size="13824"/>
			<rt_info>
				<attribute name="fused_names" version="0" value="2889"/>
			</rt_info>
			<output>
				<port id="0" precision="FP32" names="2889">
					<dim>24</dim>
					<dim>144</dim>
					<dim>1</dim>
					<dim>1</dim>
				</port>
			</output>
		</layer>
		<layer id="51" name="Convolution_1539" type="Convolution" version="opset1">
			<data strides="1, 1" dilations="1, 1" pads_begin="0, 0" pads_end="0, 0" auto_pad="explicit"/>
			<rt_info>
				<attribute name="fused_names" version="0" value="Convolution_1539"/>
			</rt_info>
			<input>
				<port id="0" precision="FP32">
					<dim>1</dim>
					<dim>144</dim>
					<dim>184</dim>
					<dim>248</dim>
				</port>
				<port id="1" precision="FP32">
					<dim>24</dim>
					<dim>144</dim>
					<dim>1</dim>
					<dim>1</dim>
				</port>
			</input>
			<output>
				<port id="2" precision="FP32">
					<dim>1</dim>
					<dim>24</dim>
					<dim>184</dim>
					<dim>248</dim>
				</port>
			</output>
		</layer>
		<layer id="52" name="Reshape_1559" type="Const" version="opset1">
			<data element_type="f32" shape="1, 24, 1, 1" offset="64912" size="96"/>
			<output>
				<port id="0" precision="FP32">
					<dim>1</dim>
					<dim>24</dim>
					<dim>1</dim>
					<dim>1</dim>
				</port>
			</output>
		</layer>
		<layer id="53" name="2888" type="Add" version="opset1">
			<data auto_broadcast="numpy"/>
			<rt_info>
				<attribute name="fused_names" version="0" value="2888, Concat_1558, Reshape_1559"/>
			</rt_info>
			<input>
				<port id="0" precision="FP32">
					<dim>1</dim>
					<dim>24</dim>
					<dim>184</dim>
					<dim>248</dim>
				</port>
				<port id="1" precision="FP32">
					<dim>1</dim>
					<dim>24</dim>
					<dim>1</dim>
					<dim>1</dim>
				</port>
			</input>
			<output>
				<port id="2" precision="FP32" names="2888">
					<dim>1</dim>
					<dim>24</dim>
					<dim>184</dim>
					<dim>248</dim>
				</port>
			</output>
		</layer>
		<layer id="54" name="411" type="Add" version="opset1">
			<data auto_broadcast="numpy"/>
			<rt_info>
				<attribute name="fused_names" version="0" value="411"/>
			</rt_info>
			<input>
				<port id="0" precision="FP32">
					<dim>1</dim>
					<dim>24</dim>
					<dim>184</dim>
					<dim>248</dim>
				</port>
				<port id="1" precision="FP32">
					<dim>1</dim>
					<dim>24</dim>
					<dim>184</dim>
					<dim>248</dim>
				</port>
			</input>
			<output>
				<port id="2" precision="FP32" names="411">
					<dim>1</dim>
					<dim>24</dim>
					<dim>184</dim>
					<dim>248</dim>
				</port>
			</output>
		</layer>
		<layer id="55" name="2892" type="Const" version="opset1">
			<data element_type="f32" shape="144, 24, 1, 1" offset="65008" size="13824"/>
			<rt_info>
				<attribute name="fused_names" version="0" value="2892"/>
			</rt_info>
			<output>
				<port id="0" precision="FP32" names="2892">
					<dim>144</dim>
					<dim>24</dim>
					<dim>1</dim>
					<dim>1</dim>
				</port>
			</output>
		</layer>
		<layer id="56" name="Convolution_1588" type="Convolution" version="opset1">
			<data strides="1, 1" dilations="1, 1" pads_begin="0, 0" pads_end="0, 0" auto_pad="explicit"/>
			<rt_info>
				<attribute name="fused_names" version="0" value="Convolution_1588"/>
			</rt_info>
			<input>
				<port id="0" precision="FP32">
					<dim>1</dim>
					<dim>24</dim>
					<dim>184</dim>
					<dim>248</dim>
				</port>
				<port id="1" precision="FP32">
					<dim>144</dim>
					<dim>24</dim>
					<dim>1</dim>
					<dim>1</dim>
				</port>
			</input>
			<output>
				<port id="2" precision="FP32">
					<dim>1</dim>
					<dim>144</dim>
					<dim>184</dim>
					<dim>248</dim>
				</port>
			</output>
		</layer>
		<layer id="57" name="Reshape_1608" type="Const" version="opset1">
			<data element_type="f32" shape="1, 144, 1, 1" offset="78832" size="576"/>
			<output>
				<port id="0" precision="FP32">
					<dim>1</dim>
					<dim>144</dim>
					<dim>1</dim>
					<dim>1</dim>
				</port>
			</output>
		</layer>
		<layer id="58" name="2891" type="Add" version="opset1">
			<data auto_broadcast="numpy"/>
			<rt_info>
				<attribute name="fused_names" version="0" value="2891, Concat_1607, Reshape_1608"/>
			</rt_info>
			<input>
				<port id="0" precision="FP32">
					<dim>1</dim>
					<dim>144</dim>
					<dim>184</dim>
					<dim>248</dim>
				</port>
				<port id="1" precision="FP32">
					<dim>1</dim>
					<dim>144</dim>
					<dim>1</dim>
					<dim>1</dim>
				</port>
			</input>
			<output>
				<port id="2" precision="FP32" names="2891">
					<dim>1</dim>
					<dim>144</dim>
					<dim>184</dim>
					<dim>248</dim>
				</port>
			</output>
		</layer>
		<layer id="59" name="416" type="Clamp" version="opset1">
			<data min="0" max="6"/>
			<rt_info>
				<attribute name="fused_names" version="0" value="416, Maximum_1636"/>
			</rt_info>
			<input>
				<port id="0" precision="FP32">
					<dim>1</dim>
					<dim>144</dim>
					<dim>184</dim>
					<dim>248</dim>
				</port>
			</input>
			<output>
				<port id="1" precision="FP32" names="416">
					<dim>1</dim>
					<dim>144</dim>
					<dim>184</dim>
					<dim>248</dim>
				</port>
			</output>
		</layer>
		<layer id="60" name="Reshape_1645" type="Const" version="opset1">
			<data element_type="f32" shape="144, 1, 1, 3, 3" offset="79408" size="5184"/>
			<output>
				<port id="0" precision="FP32">
					<dim>144</dim>
					<dim>1</dim>
					<dim>1</dim>
					<dim>3</dim>
					<dim>3</dim>
				</port>
			</output>
		</layer>
		<layer id="61" name="GroupConvolution_1711" type="GroupConvolution" version="opset1">
			<data strides="2, 2" pads_begin="1, 1" pads_end="1, 1" dilations="1, 1" auto_pad="explicit"/>
			<rt_info>
				<attribute name="fused_names" version="0" value="GroupConvolution_1711, Reshape_1645"/>
			</rt_info>
			<input>
				<port id="0" precision="FP32">
					<dim>1</dim>
					<dim>144</dim>
					<dim>184</dim>
					<dim>248</dim>
				</port>
				<port id="1" precision="FP32">
					<dim>144</dim>
					<dim>1</dim>
					<dim>1</dim>
					<dim>3</dim>
					<dim>3</dim>
				</port>
			</input>
			<output>
				<port id="2" precision="FP32">
					<dim>1</dim>
					<dim>144</dim>
					<dim>92</dim>
					<dim>124</dim>
				</port>
			</output>
		</layer>
		<layer id="62" name="Reshape_1731" type="Const" version="opset1">
			<data element_type="f32" shape="1, 144, 1, 1" offset="84592" size="576"/>
			<output>
				<port id="0" precision="FP32">
					<dim>1</dim>
					<dim>144</dim>
					<dim>1</dim>
					<dim>1</dim>
				</port>
			</output>
		</layer>
		<layer id="63" name="2894" type="Add" version="opset1">
			<data auto_broadcast="numpy"/>
			<rt_info>
				<attribute name="fused_names" version="0" value="2894, Concat_1730, Reshape_1731"/>
			</rt_info>
			<input>
				<port id="0" precision="FP32">
					<dim>1</dim>
					<dim>144</dim>
					<dim>92</dim>
					<dim>124</dim>
				</port>
				<port id="1" precision="FP32">
					<dim>1</dim>
					<dim>144</dim>
					<dim>1</dim>
					<dim>1</dim>
				</port>
			</input>
			<output>
				<port id="2" precision="FP32" names="2894">
					<dim>1</dim>
					<dim>144</dim>
					<dim>92</dim>
					<dim>124</dim>
				</port>
			</output>
		</layer>
		<layer id="64" name="421" type="Clamp" version="opset1">
			<data min="0" max="6"/>
			<rt_info>
				<attribute name="fused_names" version="0" value="421, Maximum_1759"/>
			</rt_info>
			<input>
				<port id="0" precision="FP32">
					<dim>1</dim>
					<dim>144</dim>
					<dim>92</dim>
					<dim>124</dim>
				</port>
			</input>
			<output>
				<port id="1" precision="FP32" names="421">
					<dim>1</dim>
					<dim>144</dim>
					<dim>92</dim>
					<dim>124</dim>
				</port>
			</output>
		</layer>
		<layer id="65" name="2898" type="Const" version="opset1">
			<data element_type="f32" shape="32, 144, 1, 1" offset="85168" size="18432"/>
			<rt_info>
				<attribute name="fused_names" version="0" value="2898"/>
			</rt_info>
			<output>
				<port id="0" precision="FP32" names="2898">
					<dim>32</dim>
					<dim>144</dim>
					<dim>1</dim>
					<dim>1</dim>
				</port>
			</output>
		</layer>
		<layer id="66" name="Convolution_1761" type="Convolution" version="opset1">
			<data strides="1, 1" dilations="1, 1" pads_begin="0, 0" pads_end="0, 0" auto_pad="explicit"/>
			<rt_info>
				<attribute name="fused_names" version="0" value="Convolution_1761"/>
			</rt_info>
			<input>
				<port id="0" precision="FP32">
					<dim>1</dim>
					<dim>144</dim>
					<dim>92</dim>
					<dim>124</dim>
				</port>
				<port id="1" precision="FP32">
					<dim>32</dim>
					<dim>144</dim>
					<dim>1</dim>
					<dim>1</dim>
				</port>
			</input>
			<output>
				<port id="2" precision="FP32">
					<dim>1</dim>
					<dim>32</dim>
					<dim>92</dim>
					<dim>124</dim>
				</port>
			</output>
		</layer>
		<layer id="67" name="Reshape_1781" type="Const" version="opset1">
			<data element_type="f32" shape="1, 32, 1, 1" offset="103600" size="128"/>
			<output>
				<port id="0" precision="FP32">
					<dim>1</dim>
					<dim>32</dim>
					<dim>1</dim>
					<dim>1</dim>
				</port>
			</output>
		</layer>
		<layer id="68" name="2897" type="Add" version="opset1">
			<data auto_broadcast="numpy"/>
			<rt_info>
				<attribute name="fused_names" version="0" value="2897, Concat_1780, Reshape_1781"/>
			</rt_info>
			<input>
				<port id="0" precision="FP32">
					<dim>1</dim>
					<dim>32</dim>
					<dim>92</dim>
					<dim>124</dim>
				</port>
				<port id="1" precision="FP32">
					<dim>1</dim>
					<dim>32</dim>
					<dim>1</dim>
					<dim>1</dim>
				</port>
			</input>
			<output>
				<port id="2" precision="FP32" names="2897">
					<dim>1</dim>
					<dim>32</dim>
					<dim>92</dim>
					<dim>124</dim>
				</port>
			</output>
		</layer>
		<layer id="69" name="2901" type="Const" version="opset1">
			<data element_type="f32" shape="192, 32, 1, 1" offset="103728" size="24576"/>
			<rt_info>
				<attribute name="fused_names" version="0" value="2901"/>
			</rt_info>
			<output>
				<port id="0" precision="FP32" names="2901">
					<dim>192</dim>
					<dim>32</dim>
					<dim>1</dim>
					<dim>1</dim>
				</port>
			</output>
		</layer>
		<layer id="70" name="Convolution_1809" type="Convolution" version="opset1">
			<data strides="1, 1" dilations="1, 1" pads_begin="0, 0" pads_end="0, 0" auto_pad="explicit"/>
			<rt_info>
				<attribute name="fused_names" version="0" value="Convolution_1809"/>
			</rt_info>
			<input>
				<port id="0" precision="FP32">
					<dim>1</dim>
					<dim>32</dim>
					<dim>92</dim>
					<dim>124</dim>
				</port>
				<port id="1" precision="FP32">
					<dim>192</dim>
					<dim>32</dim>
					<dim>1</dim>
					<dim>1</dim>
				</port>
			</input>
			<output>
				<port id="2" precision="FP32">
					<dim>1</dim>
					<dim>192</dim>
					<dim>92</dim>
					<dim>124</dim>
				</port>
			</output>
		</layer>
		<layer id="71" name="Reshape_1829" type="Const" version="opset1">
			<data element_type="f32" shape="1, 192, 1, 1" offset="128304" size="768"/>
			<output>
				<port id="0" precision="FP32">
					<dim>1</dim>
					<dim>192</dim>
					<dim>1</dim>
					<dim>1</dim>
				</port>
			</output>
		</layer>
		<layer id="72" name="2900" type="Add" version="opset1">
			<data auto_broadcast="numpy"/>
			<rt_info>
				<attribute name="fused_names" version="0" value="2900, Concat_1828, Reshape_1829"/>
			</rt_info>
			<input>
				<port id="0" precision="FP32">
					<dim>1</dim>
					<dim>192</dim>
					<dim>92</dim>
					<dim>124</dim>
				</port>
				<port id="1" precision="FP32">
					<dim>1</dim>
					<dim>192</dim>
					<dim>1</dim>
					<dim>1</dim>
				</port>
			</input>
			<output>
				<port id="2" precision="FP32" names="2900">
					<dim>1</dim>
					<dim>192</dim>
					<dim>92</dim>
					<dim>124</dim>
				</port>
			</output>
		</layer>
		<layer id="73" name="428" type="Clamp" version="opset1">
			<data min="0" max="6"/>
			<rt_info>
				<attribute name="fused_names" version="0" value="428, Maximum_1857"/>
			</rt_info>
			<input>
				<port id="0" precision="FP32">
					<dim>1</dim>
					<dim>192</dim>
					<dim>92</dim>
					<dim>124</dim>
				</port>
			</input>
			<output>
				<port id="1" precision="FP32" names="428">
					<dim>1</dim>
					<dim>192</dim>
					<dim>92</dim>
					<dim>124</dim>
				</port>
			</output>
		</layer>
		<layer id="74" name="Reshape_1866" type="Const" version="opset1">
			<data element_type="f32" shape="192, 1, 1, 3, 3" offset="129072" size="6912"/>
			<output>
				<port id="0" precision="FP32">
					<dim>192</dim>
					<dim>1</dim>
					<dim>1</dim>
					<dim>3</dim>
					<dim>3</dim>
				</port>
			</output>
		</layer>
		<layer id="75" name="GroupConvolution_1932" type="GroupConvolution" version="opset1">
			<data strides="1, 1" pads_begin="1, 1" pads_end="1, 1" dilations="1, 1" auto_pad="explicit"/>
			<rt_info>
				<attribute name="fused_names" version="0" value="GroupConvolution_1932, Reshape_1866"/>
			</rt_info>
			<input>
				<port id="0" precision="FP32">
					<dim>1</dim>
					<dim>192</dim>
					<dim>92</dim>
					<dim>124</dim>
				</port>
				<port id="1" precision="FP32">
					<dim>192</dim>
					<dim>1</dim>
					<dim>1</dim>
					<dim>3</dim>
					<dim>3</dim>
				</port>
			</input>
			<output>
				<port id="2" precision="FP32">
					<dim>1</dim>
					<dim>192</dim>
					<dim>92</dim>
					<dim>124</dim>
				</port>
			</output>
		</layer>
		<layer id="76" name="Reshape_1952" type="Const" version="opset1">
			<data element_type="f32" shape="1, 192, 1, 1" offset="135984" size="768"/>
			<output>
				<port id="0" precision="FP32">
					<dim>1</dim>
					<dim>192</dim>
					<dim>1</dim>
					<dim>1</dim>
				</port>
			</output>
		</layer>
		<layer id="77" name="2903" type="Add" version="opset1">
			<data auto_broadcast="numpy"/>
			<rt_info>
				<attribute name="fused_names" version="0" value="2903, Concat_1951, Reshape_1952"/>
			</rt_info>
			<input>
				<port id="0" precision="FP32">
					<dim>1</dim>
					<dim>192</dim>
					<dim>92</dim>
					<dim>124</dim>
				</port>
				<port id="1" precision="FP32">
					<dim>1</dim>
					<dim>192</dim>
					<dim>1</dim>
					<dim>1</dim>
				</port>
			</input>
			<output>
				<port id="2" precision="FP32" names="2903">
					<dim>1</dim>
					<dim>192</dim>
					<dim>92</dim>
					<dim>124</dim>
				</port>
			</output>
		</layer>
		<layer id="78" name="433" type="Clamp" version="opset1">
			<data min="0" max="6"/>
			<rt_info>
				<attribute name="fused_names" version="0" value="433, Maximum_1980"/>
			</rt_info>
			<input>
				<port id="0" precision="FP32">
					<dim>1</dim>
					<dim>192</dim>
					<dim>92</dim>
					<dim>124</dim>
				</port>
			</input>
			<output>
				<port id="1" precision="FP32" names="433">
					<dim>1</dim>
					<dim>192</dim>
					<dim>92</dim>
					<dim>124</dim>
				</port>
			</output>
		</layer>
		<layer id="79" name="2907" type="Const" version="opset1">
			<data element_type="f32" shape="32, 192, 1, 1" offset="136752" size="24576"/>
			<rt_info>
				<attribute name="fused_names" version="0" value="2907"/>
			</rt_info>
			<output>
				<port id="0" precision="FP32" names="2907">
					<dim>32</dim>
					<dim>192</dim>
					<dim>1</dim>
					<dim>1</dim>
				</port>
			</output>
		</layer>
		<layer id="80" name="Convolution_1982" type="Convolution" version="opset1">
			<data strides="1, 1" dilations="1, 1" pads_begin="0, 0" pads_end="0, 0" auto_pad="explicit"/>
			<rt_info>
				<attribute name="fused_names" version="0" value="Convolution_1982"/>
			</rt_info>
			<input>
				<port id="0" precision="FP32">
					<dim>1</dim>
					<dim>192</dim>
					<dim>92</dim>
					<dim>124</dim>
				</port>
				<port id="1" precision="FP32">
					<dim>32</dim>
					<dim>192</dim>
					<dim>1</dim>
					<dim>1</dim>
				</port>
			</input>
			<output>
				<port id="2" precision="FP32">
					<dim>1</dim>
					<dim>32</dim>
					<dim>92</dim>
					<dim>124</dim>
				</port>
			</output>
		</layer>
		<layer id="81" name="Reshape_2002" type="Const" version="opset1">
			<data element_type="f32" shape="1, 32, 1, 1" offset="161328" size="128"/>
			<output>
				<port id="0" precision="FP32">
					<dim>1</dim>
					<dim>32</dim>
					<dim>1</dim>
					<dim>1</dim>
				</port>
			</output>
		</layer>
		<layer id="82" name="2906" type="Add" version="opset1">
			<data auto_broadcast="numpy"/>
			<rt_info>
				<attribute name="fused_names" version="0" value="2906, Concat_2001, Reshape_2002"/>
			</rt_info>
			<input>
				<port id="0" precision="FP32">
					<dim>1</dim>
					<dim>32</dim>
					<dim>92</dim>
					<dim>124</dim>
				</port>
				<port id="1" precision="FP32">
					<dim>1</dim>
					<dim>32</dim>
					<dim>1</dim>
					<dim>1</dim>
				</port>
			</input>
			<output>
				<port id="2" precision="FP32" names="2906">
					<dim>1</dim>
					<dim>32</dim>
					<dim>92</dim>
					<dim>124</dim>
				</port>
			</output>
		</layer>
		<layer id="83" name="436" type="Add" version="opset1">
			<data auto_broadcast="numpy"/>
			<rt_info>
				<attribute name="fused_names" version="0" value="436"/>
			</rt_info>
			<input>
				<port id="0" precision="FP32">
					<dim>1</dim>
					<dim>32</dim>
					<dim>92</dim>
					<dim>124</dim>
				</port>
				<port id="1" precision="FP32">
					<dim>1</dim>
					<dim>32</dim>
					<dim>92</dim>
					<dim>124</dim>
				</port>
			</input>
			<output>
				<port id="2" precision="FP32" names="436">
					<dim>1</dim>
					<dim>32</dim>
					<dim>92</dim>
					<dim>124</dim>
				</port>
			</output>
		</layer>
		<layer id="84" name="2910" type="Const" version="opset1">
			<data element_type="f32" shape="192, 32, 1, 1" offset="161456" size="24576"/>
			<rt_info>
				<attribute name="fused_names" version="0" value="2910"/>
			</rt_info>
			<output>
				<port id="0" precision="FP32" names="2910">
					<dim>192</dim>
					<dim>32</dim>
					<dim>1</dim>
					<dim>1</dim>
				</port>
			</output>
		</layer>
		<layer id="85" name="Convolution_2031" type="Convolution" version="opset1">
			<data strides="1, 1" dilations="1, 1" pads_begin="0, 0" pads_end="0, 0" auto_pad="explicit"/>
			<rt_info>
				<attribute name="fused_names" version="0" value="Convolution_2031"/>
			</rt_info>
			<input>
				<port id="0" precision="FP32">
					<dim>1</dim>
					<dim>32</dim>
					<dim>92</dim>
					<dim>124</dim>
				</port>
				<port id="1" precision="FP32">
					<dim>192</dim>
					<dim>32</dim>
					<dim>1</dim>
					<dim>1</dim>
				</port>
			</input>
			<output>
				<port id="2" precision="FP32">
					<dim>1</dim>
					<dim>192</dim>
					<dim>92</dim>
					<dim>124</dim>
				</port>
			</output>
		</layer>
		<layer id="86" name="Reshape_2051" type="Const" version="opset1">
			<data element_type="f32" shape="1, 192, 1, 1" offset="186032" size="768"/>
			<output>
				<port id="0" precision="FP32">
					<dim>1</dim>
					<dim>192</dim>
					<dim>1</dim>
					<dim>1</dim>
				</port>
			</output>
		</layer>
		<layer id="87" name="2909" type="Add" version="opset1">
			<data auto_broadcast="numpy"/>
			<rt_info>
				<attribute name="fused_names" version="0" value="2909, Concat_2050, Reshape_2051"/>
			</rt_info>
			<input>
				<port id="0" precision="FP32">
					<dim>1</dim>
					<dim>192</dim>
					<dim>92</dim>
					<dim>124</dim>
				</port>
				<port id="1" precision="FP32">
					<dim>1</dim>
					<dim>192</dim>
					<dim>1</dim>
					<dim>1</dim>
				</port>
			</input>
			<output>
				<port id="2" precision="FP32" names="2909">
					<dim>1</dim>
					<dim>192</dim>
					<dim>92</dim>
					<dim>124</dim>
				</port>
			</output>
		</layer>
		<layer id="88" name="441" type="Clamp" version="opset1">
			<data min="0" max="6"/>
			<rt_info>
				<attribute name="fused_names" version="0" value="441, Maximum_2079"/>
			</rt_info>
			<input>
				<port id="0" precision="FP32">
					<dim>1</dim>
					<dim>192</dim>
					<dim>92</dim>
					<dim>124</dim>
				</port>
			</input>
			<output>
				<port id="1" precision="FP32" names="441">
					<dim>1</dim>
					<dim>192</dim>
					<dim>92</dim>
					<dim>124</dim>
				</port>
			</output>
		</layer>
		<layer id="89" name="Reshape_2088" type="Const" version="opset1">
			<data element_type="f32" shape="192, 1, 1, 3, 3" offset="186800" size="6912"/>
			<output>
				<port id="0" precision="FP32">
					<dim>192</dim>
					<dim>1</dim>
					<dim>1</dim>
					<dim>3</dim>
					<dim>3</dim>
				</port>
			</output>
		</layer>
		<layer id="90" name="GroupConvolution_2154" type="GroupConvolution" version="opset1">
			<data strides="1, 1" pads_begin="1, 1" pads_end="1, 1" dilations="1, 1" auto_pad="explicit"/>
			<rt_info>
				<attribute name="fused_names" version="0" value="GroupConvolution_2154, Reshape_2088"/>
			</rt_info>
			<input>
				<port id="0" precision="FP32">
					<dim>1</dim>
					<dim>192</dim>
					<dim>92</dim>
					<dim>124</dim>
				</port>
				<port id="1" precision="FP32">
					<dim>192</dim>
					<dim>1</dim>
					<dim>1</dim>
					<dim>3</dim>
					<dim>3</dim>
				</port>
			</input>
			<output>
				<port id="2" precision="FP32">
					<dim>1</dim>
					<dim>192</dim>
					<dim>92</dim>
					<dim>124</dim>
				</port>
			</output>
		</layer>
		<layer id="91" name="Reshape_2174" type="Const" version="opset1">
			<data element_type="f32" shape="1, 192, 1, 1" offset="193712" size="768"/>
			<output>
				<port id="0" precision="FP32">
					<dim>1</dim>
					<dim>192</dim>
					<dim>1</dim>
					<dim>1</dim>
				</port>
			</output>
		</layer>
		<layer id="92" name="2912" type="Add" version="opset1">
			<data auto_broadcast="numpy"/>
			<rt_info>
				<attribute name="fused_names" version="0" value="2912, Concat_2173, Reshape_2174"/>
			</rt_info>
			<input>
				<port id="0" precision="FP32">
					<dim>1</dim>
					<dim>192</dim>
					<dim>92</dim>
					<dim>124</dim>
				</port>
				<port id="1" precision="FP32">
					<dim>1</dim>
					<dim>192</dim>
					<dim>1</dim>
					<dim>1</dim>
				</port>
			</input>
			<output>
				<port id="2" precision="FP32" names="2912">
					<dim>1</dim>
					<dim>192</dim>
					<dim>92</dim>
					<dim>124</dim>
				</port>
			</output>
		</layer>
		<layer id="93" name="446" type="Clamp" version="opset1">
			<data min="0" max="6"/>
			<rt_info>
				<attribute name="fused_names" version="0" value="446, Maximum_2202"/>
			</rt_info>
			<input>
				<port id="0" precision="FP32">
					<dim>1</dim>
					<dim>192</dim>
					<dim>92</dim>
					<dim>124</dim>
				</port>
			</input>
			<output>
				<port id="1" precision="FP32" names="446">
					<dim>1</dim>
					<dim>192</dim>
					<dim>92</dim>
					<dim>124</dim>
				</port>
			</output>
		</layer>
		<layer id="94" name="2916" type="Const" version="opset1">
			<data element_type="f32" shape="32, 192, 1, 1" offset="194480" size="24576"/>
			<rt_info>
				<attribute name="fused_names" version="0" value="2916"/>
			</rt_info>
			<output>
				<port id="0" precision="FP32" names="2916">
					<dim>32</dim>
					<dim>192</dim>
					<dim>1</dim>
					<dim>1</dim>
				</port>
			</output>
		</layer>
		<layer id="95" name="Convolution_2204" type="Convolution" version="opset1">
			<data strides="1, 1" dilations="1, 1" pads_begin="0, 0" pads_end="0, 0" auto_pad="explicit"/>
			<rt_info>
				<attribute name="fused_names" version="0" value="Convolution_2204"/>
			</rt_info>
			<input>
				<port id="0" precision="FP32">
					<dim>1</dim>
					<dim>192</dim>
					<dim>92</dim>
					<dim>124</dim>
				</port>
				<port id="1" precision="FP32">
					<dim>32</dim>
					<dim>192</dim>
					<dim>1</dim>
					<dim>1</dim>
				</port>
			</input>
			<output>
				<port id="2" precision="FP32">
					<dim>1</dim>
					<dim>32</dim>
					<dim>92</dim>
					<dim>124</dim>
				</port>
			</output>
		</layer>
		<layer id="96" name="Reshape_2224" type="Const" version="opset1">
			<data element_type="f32" shape="1, 32, 1, 1" offset="219056" size="128"/>
			<output>
				<port id="0" precision="FP32">
					<dim>1</dim>
					<dim>32</dim>
					<dim>1</dim>
					<dim>1</dim>
				</port>
			</output>
		</layer>
		<layer id="97" name="2915" type="Add" version="opset1">
			<data auto_broadcast="numpy"/>
			<rt_info>
				<attribute name="fused_names" version="0" value="2915, Concat_2223, Reshape_2224"/>
			</rt_info>
			<input>
				<port id="0" precision="FP32">
					<dim>1</dim>
					<dim>32</dim>
					<dim>92</dim>
					<dim>124</dim>
				</port>
				<port id="1" precision="FP32">
					<dim>1</dim>
					<dim>32</dim>
					<dim>1</dim>
					<dim>1</dim>
				</port>
			</input>
			<output>
				<port id="2" precision="FP32" names="2915">
					<dim>1</dim>
					<dim>32</dim>
					<dim>92</dim>
					<dim>124</dim>
				</port>
			</output>
		</layer>
		<layer id="98" name="449" type="Add" version="opset1">
			<data auto_broadcast="numpy"/>
			<rt_info>
				<attribute name="fused_names" version="0" value="449"/>
			</rt_info>
			<input>
				<port id="0" precision="FP32">
					<dim>1</dim>
					<dim>32</dim>
					<dim>92</dim>
					<dim>124</dim>
				</port>
				<port id="1" precision="FP32">
					<dim>1</dim>
					<dim>32</dim>
					<dim>92</dim>
					<dim>124</dim>
				</port>
			</input>
			<output>
				<port id="2" precision="FP32" names="449">
					<dim>1</dim>
					<dim>32</dim>
					<dim>92</dim>
					<dim>124</dim>
				</port>
			</output>
		</layer>
		<layer id="99" name="neck.lateral_convs.0.conv.weight" type="Const" version="opset1">
			<data element_type="f32" shape="64, 32, 1, 1" offset="219184" size="8192"/>
			<rt_info>
				<attribute name="fused_names" version="0" value="neck.lateral_convs.0.conv.weight"/>
			</rt_info>
			<output>
				<port id="0" precision="FP32" names="neck.lateral_convs.0.conv.weight">
					<dim>64</dim>
					<dim>32</dim>
					<dim>1</dim>
					<dim>1</dim>
				</port>
			</output>
		</layer>
		<layer id="100" name="Convolution_4691" type="Convolution" version="opset1">
			<data strides="1, 1" dilations="1, 1" pads_begin="0, 0" pads_end="0, 0" auto_pad="explicit"/>
			<rt_info>
				<attribute name="fused_names" version="0" value="Convolution_4691"/>
			</rt_info>
			<input>
				<port id="0" precision="FP32">
					<dim>1</dim>
					<dim>32</dim>
					<dim>92</dim>
					<dim>124</dim>
				</port>
				<port id="1" precision="FP32">
					<dim>64</dim>
					<dim>32</dim>
					<dim>1</dim>
					<dim>1</dim>
				</port>
			</input>
			<output>
				<port id="2" precision="FP32">
					<dim>1</dim>
					<dim>64</dim>
					<dim>92</dim>
					<dim>124</dim>
				</port>
			</output>
		</layer>
		<layer id="101" name="Reshape_4711" type="Const" version="opset1">
			<data element_type="f32" shape="1, 64, 1, 1" offset="227376" size="256"/>
			<output>
				<port id="0" precision="FP32">
					<dim>1</dim>
					<dim>64</dim>
					<dim>1</dim>
					<dim>1</dim>
				</port>
			</output>
		</layer>
		<layer id="102" name="589" type="Add" version="opset1">
			<data auto_broadcast="numpy"/>
			<rt_info>
				<attribute name="fused_names" version="0" value="589, Concat_4710, Reshape_4711"/>
			</rt_info>
			<input>
				<port id="0" precision="FP32">
					<dim>1</dim>
					<dim>64</dim>
					<dim>92</dim>
					<dim>124</dim>
				</port>
				<port id="1" precision="FP32">
					<dim>1</dim>
					<dim>64</dim>
					<dim>1</dim>
					<dim>1</dim>
				</port>
			</input>
			<output>
				<port id="2" precision="FP32" names="589">
					<dim>1</dim>
					<dim>64</dim>
					<dim>92</dim>
					<dim>124</dim>
				</port>
			</output>
		</layer>
		<layer id="103" name="2919" type="Const" version="opset1">
			<data element_type="f32" shape="192, 32, 1, 1" offset="227632" size="24576"/>
			<rt_info>
				<attribute name="fused_names" version="0" value="2919"/>
			</rt_info>
			<output>
				<port id="0" precision="FP32" names="2919">
					<dim>192</dim>
					<dim>32</dim>
					<dim>1</dim>
					<dim>1</dim>
				</port>
			</output>
		</layer>
		<layer id="104" name="Convolution_2253" type="Convolution" version="opset1">
			<data strides="1, 1" dilations="1, 1" pads_begin="0, 0" pads_end="0, 0" auto_pad="explicit"/>
			<rt_info>
				<attribute name="fused_names" version="0" value="Convolution_2253"/>
			</rt_info>
			<input>
				<port id="0" precision="FP32">
					<dim>1</dim>
					<dim>32</dim>
					<dim>92</dim>
					<dim>124</dim>
				</port>
				<port id="1" precision="FP32">
					<dim>192</dim>
					<dim>32</dim>
					<dim>1</dim>
					<dim>1</dim>
				</port>
			</input>
			<output>
				<port id="2" precision="FP32">
					<dim>1</dim>
					<dim>192</dim>
					<dim>92</dim>
					<dim>124</dim>
				</port>
			</output>
		</layer>
		<layer id="105" name="Reshape_2273" type="Const" version="opset1">
			<data element_type="f32" shape="1, 192, 1, 1" offset="252208" size="768"/>
			<output>
				<port id="0" precision="FP32">
					<dim>1</dim>
					<dim>192</dim>
					<dim>1</dim>
					<dim>1</dim>
				</port>
			</output>
		</layer>
		<layer id="106" name="2918" type="Add" version="opset1">
			<data auto_broadcast="numpy"/>
			<rt_info>
				<attribute name="fused_names" version="0" value="2918, Concat_2272, Reshape_2273"/>
			</rt_info>
			<input>
				<port id="0" precision="FP32">
					<dim>1</dim>
					<dim>192</dim>
					<dim>92</dim>
					<dim>124</dim>
				</port>
				<port id="1" precision="FP32">
					<dim>1</dim>
					<dim>192</dim>
					<dim>1</dim>
					<dim>1</dim>
				</port>
			</input>
			<output>
				<port id="2" precision="FP32" names="2918">
					<dim>1</dim>
					<dim>192</dim>
					<dim>92</dim>
					<dim>124</dim>
				</port>
			</output>
		</layer>
		<layer id="107" name="454" type="Clamp" version="opset1">
			<data min="0" max="6"/>
			<rt_info>
				<attribute name="fused_names" version="0" value="454, Maximum_2301"/>
			</rt_info>
			<input>
				<port id="0" precision="FP32">
					<dim>1</dim>
					<dim>192</dim>
					<dim>92</dim>
					<dim>124</dim>
				</port>
			</input>
			<output>
				<port id="1" precision="FP32" names="454">
					<dim>1</dim>
					<dim>192</dim>
					<dim>92</dim>
					<dim>124</dim>
				</port>
			</output>
		</layer>
		<layer id="108" name="Reshape_2310" type="Const" version="opset1">
			<data element_type="f32" shape="192, 1, 1, 3, 3" offset="252976" size="6912"/>
			<output>
				<port id="0" precision="FP32">
					<dim>192</dim>
					<dim>1</dim>
					<dim>1</dim>
					<dim>3</dim>
					<dim>3</dim>
				</port>
			</output>
		</layer>
		<layer id="109" name="GroupConvolution_2376" type="GroupConvolution" version="opset1">
			<data strides="2, 2" pads_begin="1, 1" pads_end="1, 1" dilations="1, 1" auto_pad="explicit"/>
			<rt_info>
				<attribute name="fused_names" version="0" value="GroupConvolution_2376, Reshape_2310"/>
			</rt_info>
			<input>
				<port id="0" precision="FP32">
					<dim>1</dim>
					<dim>192</dim>
					<dim>92</dim>
					<dim>124</dim>
				</port>
				<port id="1" precision="FP32">
					<dim>192</dim>
					<dim>1</dim>
					<dim>1</dim>
					<dim>3</dim>
					<dim>3</dim>
				</port>
			</input>
			<output>
				<port id="2" precision="FP32">
					<dim>1</dim>
					<dim>192</dim>
					<dim>46</dim>
					<dim>62</dim>
				</port>
			</output>
		</layer>
		<layer id="110" name="Reshape_2396" type="Const" version="opset1">
			<data element_type="f32" shape="1, 192, 1, 1" offset="259888" size="768"/>
			<output>
				<port id="0" precision="FP32">
					<dim>1</dim>
					<dim>192</dim>
					<dim>1</dim>
					<dim>1</dim>
				</port>
			</output>
		</layer>
		<layer id="111" name="2921" type="Add" version="opset1">
			<data auto_broadcast="numpy"/>
			<rt_info>
				<attribute name="fused_names" version="0" value="2921, Concat_2395, Reshape_2396"/>
			</rt_info>
			<input>
				<port id="0" precision="FP32">
					<dim>1</dim>
					<dim>192</dim>
					<dim>46</dim>
					<dim>62</dim>
				</port>
				<port id="1" precision="FP32">
					<dim>1</dim>
					<dim>192</dim>
					<dim>1</dim>
					<dim>1</dim>
				</port>
			</input>
			<output>
				<port id="2" precision="FP32" names="2921">
					<dim>1</dim>
					<dim>192</dim>
					<dim>46</dim>
					<dim>62</dim>
				</port>
			</output>
		</layer>
		<layer id="112" name="459" type="Clamp" version="opset1">
			<data min="0" max="6"/>
			<rt_info>
				<attribute name="fused_names" version="0" value="459, Maximum_2424"/>
			</rt_info>
			<input>
				<port id="0" precision="FP32">
					<dim>1</dim>
					<dim>192</dim>
					<dim>46</dim>
					<dim>62</dim>
				</port>
			</input>
			<output>
				<port id="1" precision="FP32" names="459">
					<dim>1</dim>
					<dim>192</dim>
					<dim>46</dim>
					<dim>62</dim>
				</port>
			</output>
		</layer>
		<layer id="113" name="2925" type="Const" version="opset1">
			<data element_type="f32" shape="64, 192, 1, 1" offset="260656" size="49152"/>
			<rt_info>
				<attribute name="fused_names" version="0" value="2925"/>
			</rt_info>
			<output>
				<port id="0" precision="FP32" names="2925">
					<dim>64</dim>
					<dim>192</dim>
					<dim>1</dim>
					<dim>1</dim>
				</port>
			</output>
		</layer>
		<layer id="114" name="Convolution_2426" type="Convolution" version="opset1">
			<data strides="1, 1" dilations="1, 1" pads_begin="0, 0" pads_end="0, 0" auto_pad="explicit"/>
			<rt_info>
				<attribute name="fused_names" version="0" value="Convolution_2426"/>
			</rt_info>
			<input>
				<port id="0" precision="FP32">
					<dim>1</dim>
					<dim>192</dim>
					<dim>46</dim>
					<dim>62</dim>
				</port>
				<port id="1" precision="FP32">
					<dim>64</dim>
					<dim>192</dim>
					<dim>1</dim>
					<dim>1</dim>
				</port>
			</input>
			<output>
				<port id="2" precision="FP32">
					<dim>1</dim>
					<dim>64</dim>
					<dim>46</dim>
					<dim>62</dim>
				</port>
			</output>
		</layer>
		<layer id="115" name="Reshape_2446" type="Const" version="opset1">
			<data element_type="f32" shape="1, 64, 1, 1" offset="309808" size="256"/>
			<output>
				<port id="0" precision="FP32">
					<dim>1</dim>
					<dim>64</dim>
					<dim>1</dim>
					<dim>1</dim>
				</port>
			</output>
		</layer>
		<layer id="116" name="2924" type="Add" version="opset1">
			<data auto_broadcast="numpy"/>
			<rt_info>
				<attribute name="fused_names" version="0" value="2924, Concat_2445, Reshape_2446"/>
			</rt_info>
			<input>
				<port id="0" precision="FP32">
					<dim>1</dim>
					<dim>64</dim>
					<dim>46</dim>
					<dim>62</dim>
				</port>
				<port id="1" precision="FP32">
					<dim>1</dim>
					<dim>64</dim>
					<dim>1</dim>
					<dim>1</dim>
				</port>
			</input>
			<output>
				<port id="2" precision="FP32" names="2924">
					<dim>1</dim>
					<dim>64</dim>
					<dim>46</dim>
					<dim>62</dim>
				</port>
			</output>
		</layer>
		<layer id="117" name="2928" type="Const" version="opset1">
			<data element_type="f32" shape="384, 64, 1, 1" offset="310064" size="98304"/>
			<rt_info>
				<attribute name="fused_names" version="0" value="2928"/>
			</rt_info>
			<output>
				<port id="0" precision="FP32" names="2928">
					<dim>384</dim>
					<dim>64</dim>
					<dim>1</dim>
					<dim>1</dim>
				</port>
			</output>
		</layer>
		<layer id="118" name="Convolution_2474" type="Convolution" version="opset1">
			<data strides="1, 1" dilations="1, 1" pads_begin="0, 0" pads_end="0, 0" auto_pad="explicit"/>
			<rt_info>
				<attribute name="fused_names" version="0" value="Convolution_2474"/>
			</rt_info>
			<input>
				<port id="0" precision="FP32">
					<dim>1</dim>
					<dim>64</dim>
					<dim>46</dim>
					<dim>62</dim>
				</port>
				<port id="1" precision="FP32">
					<dim>384</dim>
					<dim>64</dim>
					<dim>1</dim>
					<dim>1</dim>
				</port>
			</input>
			<output>
				<port id="2" precision="FP32">
					<dim>1</dim>
					<dim>384</dim>
					<dim>46</dim>
					<dim>62</dim>
				</port>
			</output>
		</layer>
		<layer id="119" name="Reshape_2494" type="Const" version="opset1">
			<data element_type="f32" shape="1, 384, 1, 1" offset="408368" size="1536"/>
			<output>
				<port id="0" precision="FP32">
					<dim>1</dim>
					<dim>384</dim>
					<dim>1</dim>
					<dim>1</dim>
				</port>
			</output>
		</layer>
		<layer id="120" name="2927" type="Add" version="opset1">
			<data auto_broadcast="numpy"/>
			<rt_info>
				<attribute name="fused_names" version="0" value="2927, Concat_2493, Reshape_2494"/>
			</rt_info>
			<input>
				<port id="0" precision="FP32">
					<dim>1</dim>
					<dim>384</dim>
					<dim>46</dim>
					<dim>62</dim>
				</port>
				<port id="1" precision="FP32">
					<dim>1</dim>
					<dim>384</dim>
					<dim>1</dim>
					<dim>1</dim>
				</port>
			</input>
			<output>
				<port id="2" precision="FP32" names="2927">
					<dim>1</dim>
					<dim>384</dim>
					<dim>46</dim>
					<dim>62</dim>
				</port>
			</output>
		</layer>
		<layer id="121" name="466" type="Clamp" version="opset1">
			<data min="0" max="6"/>
			<rt_info>
				<attribute name="fused_names" version="0" value="466, Maximum_2522"/>
			</rt_info>
			<input>
				<port id="0" precision="FP32">
					<dim>1</dim>
					<dim>384</dim>
					<dim>46</dim>
					<dim>62</dim>
				</port>
			</input>
			<output>
				<port id="1" precision="FP32" names="466">
					<dim>1</dim>
					<dim>384</dim>
					<dim>46</dim>
					<dim>62</dim>
				</port>
			</output>
		</layer>
		<layer id="122" name="Reshape_2531" type="Const" version="opset1">
			<data element_type="f32" shape="384, 1, 1, 3, 3" offset="409904" size="13824"/>
			<output>
				<port id="0" precision="FP32">
					<dim>384</dim>
					<dim>1</dim>
					<dim>1</dim>
					<dim>3</dim>
					<dim>3</dim>
				</port>
			</output>
		</layer>
		<layer id="123" name="GroupConvolution_2597" type="GroupConvolution" version="opset1">
			<data strides="1, 1" pads_begin="1, 1" pads_end="1, 1" dilations="1, 1" auto_pad="explicit"/>
			<rt_info>
				<attribute name="fused_names" version="0" value="GroupConvolution_2597, Reshape_2531"/>
			</rt_info>
			<input>
				<port id="0" precision="FP32">
					<dim>1</dim>
					<dim>384</dim>
					<dim>46</dim>
					<dim>62</dim>
				</port>
				<port id="1" precision="FP32">
					<dim>384</dim>
					<dim>1</dim>
					<dim>1</dim>
					<dim>3</dim>
					<dim>3</dim>
				</port>
			</input>
			<output>
				<port id="2" precision="FP32">
					<dim>1</dim>
					<dim>384</dim>
					<dim>46</dim>
					<dim>62</dim>
				</port>
			</output>
		</layer>
		<layer id="124" name="Reshape_2617" type="Const" version="opset1">
			<data element_type="f32" shape="1, 384, 1, 1" offset="423728" size="1536"/>
			<output>
				<port id="0" precision="FP32">
					<dim>1</dim>
					<dim>384</dim>
					<dim>1</dim>
					<dim>1</dim>
				</port>
			</output>
		</layer>
		<layer id="125" name="2930" type="Add" version="opset1">
			<data auto_broadcast="numpy"/>
			<rt_info>
				<attribute name="fused_names" version="0" value="2930, Concat_2616, Reshape_2617"/>
			</rt_info>
			<input>
				<port id="0" precision="FP32">
					<dim>1</dim>
					<dim>384</dim>
					<dim>46</dim>
					<dim>62</dim>
				</port>
				<port id="1" precision="FP32">
					<dim>1</dim>
					<dim>384</dim>
					<dim>1</dim>
					<dim>1</dim>
				</port>
			</input>
			<output>
				<port id="2" precision="FP32" names="2930">
					<dim>1</dim>
					<dim>384</dim>
					<dim>46</dim>
					<dim>62</dim>
				</port>
			</output>
		</layer>
		<layer id="126" name="471" type="Clamp" version="opset1">
			<data min="0" max="6"/>
			<rt_info>
				<attribute name="fused_names" version="0" value="471, Maximum_2645"/>
			</rt_info>
			<input>
				<port id="0" precision="FP32">
					<dim>1</dim>
					<dim>384</dim>
					<dim>46</dim>
					<dim>62</dim>
				</port>
			</input>
			<output>
				<port id="1" precision="FP32" names="471">
					<dim>1</dim>
					<dim>384</dim>
					<dim>46</dim>
					<dim>62</dim>
				</port>
			</output>
		</layer>
		<layer id="127" name="2934" type="Const" version="opset1">
			<data element_type="f32" shape="64, 384, 1, 1" offset="425264" size="98304"/>
			<rt_info>
				<attribute name="fused_names" version="0" value="2934"/>
			</rt_info>
			<output>
				<port id="0" precision="FP32" names="2934">
					<dim>64</dim>
					<dim>384</dim>
					<dim>1</dim>
					<dim>1</dim>
				</port>
			</output>
		</layer>
		<layer id="128" name="Convolution_2647" type="Convolution" version="opset1">
			<data strides="1, 1" dilations="1, 1" pads_begin="0, 0" pads_end="0, 0" auto_pad="explicit"/>
			<rt_info>
				<attribute name="fused_names" version="0" value="Convolution_2647"/>
			</rt_info>
			<input>
				<port id="0" precision="FP32">
					<dim>1</dim>
					<dim>384</dim>
					<dim>46</dim>
					<dim>62</dim>
				</port>
				<port id="1" precision="FP32">
					<dim>64</dim>
					<dim>384</dim>
					<dim>1</dim>
					<dim>1</dim>
				</port>
			</input>
			<output>
				<port id="2" precision="FP32">
					<dim>1</dim>
					<dim>64</dim>
					<dim>46</dim>
					<dim>62</dim>
				</port>
			</output>
		</layer>
		<layer id="129" name="Reshape_2667" type="Const" version="opset1">
			<data element_type="f32" shape="1, 64, 1, 1" offset="523568" size="256"/>
			<output>
				<port id="0" precision="FP32">
					<dim>1</dim>
					<dim>64</dim>
					<dim>1</dim>
					<dim>1</dim>
				</port>
			</output>
		</layer>
		<layer id="130" name="2933" type="Add" version="opset1">
			<data auto_broadcast="numpy"/>
			<rt_info>
				<attribute name="fused_names" version="0" value="2933, Concat_2666, Reshape_2667"/>
			</rt_info>
			<input>
				<port id="0" precision="FP32">
					<dim>1</dim>
					<dim>64</dim>
					<dim>46</dim>
					<dim>62</dim>
				</port>
				<port id="1" precision="FP32">
					<dim>1</dim>
					<dim>64</dim>
					<dim>1</dim>
					<dim>1</dim>
				</port>
			</input>
			<output>
				<port id="2" precision="FP32" names="2933">
					<dim>1</dim>
					<dim>64</dim>
					<dim>46</dim>
					<dim>62</dim>
				</port>
			</output>
		</layer>
		<layer id="131" name="474" type="Add" version="opset1">
			<data auto_broadcast="numpy"/>
			<rt_info>
				<attribute name="fused_names" version="0" value="474"/>
			</rt_info>
			<input>
				<port id="0" precision="FP32">
					<dim>1</dim>
					<dim>64</dim>
					<dim>46</dim>
					<dim>62</dim>
				</port>
				<port id="1" precision="FP32">
					<dim>1</dim>
					<dim>64</dim>
					<dim>46</dim>
					<dim>62</dim>
				</port>
			</input>
			<output>
				<port id="2" precision="FP32" names="474">
					<dim>1</dim>
					<dim>64</dim>
					<dim>46</dim>
					<dim>62</dim>
				</port>
			</output>
		</layer>
		<layer id="132" name="2937" type="Const" version="opset1">
			<data element_type="f32" shape="384, 64, 1, 1" offset="523824" size="98304"/>
			<rt_info>
				<attribute name="fused_names" version="0" value="2937"/>
			</rt_info>
			<output>
				<port id="0" precision="FP32" names="2937">
					<dim>384</dim>
					<dim>64</dim>
					<dim>1</dim>
					<dim>1</dim>
				</port>
			</output>
		</layer>
		<layer id="133" name="Convolution_2696" type="Convolution" version="opset1">
			<data strides="1, 1" dilations="1, 1" pads_begin="0, 0" pads_end="0, 0" auto_pad="explicit"/>
			<rt_info>
				<attribute name="fused_names" version="0" value="Convolution_2696"/>
			</rt_info>
			<input>
				<port id="0" precision="FP32">
					<dim>1</dim>
					<dim>64</dim>
					<dim>46</dim>
					<dim>62</dim>
				</port>
				<port id="1" precision="FP32">
					<dim>384</dim>
					<dim>64</dim>
					<dim>1</dim>
					<dim>1</dim>
				</port>
			</input>
			<output>
				<port id="2" precision="FP32">
					<dim>1</dim>
					<dim>384</dim>
					<dim>46</dim>
					<dim>62</dim>
				</port>
			</output>
		</layer>
		<layer id="134" name="Reshape_2716" type="Const" version="opset1">
			<data element_type="f32" shape="1, 384, 1, 1" offset="622128" size="1536"/>
			<output>
				<port id="0" precision="FP32">
					<dim>1</dim>
					<dim>384</dim>
					<dim>1</dim>
					<dim>1</dim>
				</port>
			</output>
		</layer>
		<layer id="135" name="2936" type="Add" version="opset1">
			<data auto_broadcast="numpy"/>
			<rt_info>
				<attribute name="fused_names" version="0" value="2936, Concat_2715, Reshape_2716"/>
			</rt_info>
			<input>
				<port id="0" precision="FP32">
					<dim>1</dim>
					<dim>384</dim>
					<dim>46</dim>
					<dim>62</dim>
				</port>
				<port id="1" precision="FP32">
					<dim>1</dim>
					<dim>384</dim>
					<dim>1</dim>
					<dim>1</dim>
				</port>
			</input>
			<output>
				<port id="2" precision="FP32" names="2936">
					<dim>1</dim>
					<dim>384</dim>
					<dim>46</dim>
					<dim>62</dim>
				</port>
			</output>
		</layer>
		<layer id="136" name="479" type="Clamp" version="opset1">
			<data min="0" max="6"/>
			<rt_info>
				<attribute name="fused_names" version="0" value="479, Maximum_2744"/>
			</rt_info>
			<input>
				<port id="0" precision="FP32">
					<dim>1</dim>
					<dim>384</dim>
					<dim>46</dim>
					<dim>62</dim>
				</port>
			</input>
			<output>
				<port id="1" precision="FP32" names="479">
					<dim>1</dim>
					<dim>384</dim>
					<dim>46</dim>
					<dim>62</dim>
				</port>
			</output>
		</layer>
		<layer id="137" name="Reshape_2753" type="Const" version="opset1">
			<data element_type="f32" shape="384, 1, 1, 3, 3" offset="623664" size="13824"/>
			<output>
				<port id="0" precision="FP32">
					<dim>384</dim>
					<dim>1</dim>
					<dim>1</dim>
					<dim>3</dim>
					<dim>3</dim>
				</port>
			</output>
		</layer>
		<layer id="138" name="GroupConvolution_2819" type="GroupConvolution" version="opset1">
			<data strides="1, 1" pads_begin="1, 1" pads_end="1, 1" dilations="1, 1" auto_pad="explicit"/>
			<rt_info>
				<attribute name="fused_names" version="0" value="GroupConvolution_2819, Reshape_2753"/>
			</rt_info>
			<input>
				<port id="0" precision="FP32">
					<dim>1</dim>
					<dim>384</dim>
					<dim>46</dim>
					<dim>62</dim>
				</port>
				<port id="1" precision="FP32">
					<dim>384</dim>
					<dim>1</dim>
					<dim>1</dim>
					<dim>3</dim>
					<dim>3</dim>
				</port>
			</input>
			<output>
				<port id="2" precision="FP32">
					<dim>1</dim>
					<dim>384</dim>
					<dim>46</dim>
					<dim>62</dim>
				</port>
			</output>
		</layer>
		<layer id="139" name="Reshape_2839" type="Const" version="opset1">
			<data element_type="f32" shape="1, 384, 1, 1" offset="637488" size="1536"/>
			<output>
				<port id="0" precision="FP32">
					<dim>1</dim>
					<dim>384</dim>
					<dim>1</dim>
					<dim>1</dim>
				</port>
			</output>
		</layer>
		<layer id="140" name="2939" type="Add" version="opset1">
			<data auto_broadcast="numpy"/>
			<rt_info>
				<attribute name="fused_names" version="0" value="2939, Concat_2838, Reshape_2839"/>
			</rt_info>
			<input>
				<port id="0" precision="FP32">
					<dim>1</dim>
					<dim>384</dim>
					<dim>46</dim>
					<dim>62</dim>
				</port>
				<port id="1" precision="FP32">
					<dim>1</dim>
					<dim>384</dim>
					<dim>1</dim>
					<dim>1</dim>
				</port>
			</input>
			<output>
				<port id="2" precision="FP32" names="2939">
					<dim>1</dim>
					<dim>384</dim>
					<dim>46</dim>
					<dim>62</dim>
				</port>
			</output>
		</layer>
		<layer id="141" name="484" type="Clamp" version="opset1">
			<data min="0" max="6"/>
			<rt_info>
				<attribute name="fused_names" version="0" value="484, Maximum_2867"/>
			</rt_info>
			<input>
				<port id="0" precision="FP32">
					<dim>1</dim>
					<dim>384</dim>
					<dim>46</dim>
					<dim>62</dim>
				</port>
			</input>
			<output>
				<port id="1" precision="FP32" names="484">
					<dim>1</dim>
					<dim>384</dim>
					<dim>46</dim>
					<dim>62</dim>
				</port>
			</output>
		</layer>
		<layer id="142" name="2943" type="Const" version="opset1">
			<data element_type="f32" shape="64, 384, 1, 1" offset="639024" size="98304"/>
			<rt_info>
				<attribute name="fused_names" version="0" value="2943"/>
			</rt_info>
			<output>
				<port id="0" precision="FP32" names="2943">
					<dim>64</dim>
					<dim>384</dim>
					<dim>1</dim>
					<dim>1</dim>
				</port>
			</output>
		</layer>
		<layer id="143" name="Convolution_2869" type="Convolution" version="opset1">
			<data strides="1, 1" dilations="1, 1" pads_begin="0, 0" pads_end="0, 0" auto_pad="explicit"/>
			<rt_info>
				<attribute name="fused_names" version="0" value="Convolution_2869"/>
			</rt_info>
			<input>
				<port id="0" precision="FP32">
					<dim>1</dim>
					<dim>384</dim>
					<dim>46</dim>
					<dim>62</dim>
				</port>
				<port id="1" precision="FP32">
					<dim>64</dim>
					<dim>384</dim>
					<dim>1</dim>
					<dim>1</dim>
				</port>
			</input>
			<output>
				<port id="2" precision="FP32">
					<dim>1</dim>
					<dim>64</dim>
					<dim>46</dim>
					<dim>62</dim>
				</port>
			</output>
		</layer>
		<layer id="144" name="Reshape_2889" type="Const" version="opset1">
			<data element_type="f32" shape="1, 64, 1, 1" offset="737328" size="256"/>
			<output>
				<port id="0" precision="FP32">
					<dim>1</dim>
					<dim>64</dim>
					<dim>1</dim>
					<dim>1</dim>
				</port>
			</output>
		</layer>
		<layer id="145" name="2942" type="Add" version="opset1">
			<data auto_broadcast="numpy"/>
			<rt_info>
				<attribute name="fused_names" version="0" value="2942, Concat_2888, Reshape_2889"/>
			</rt_info>
			<input>
				<port id="0" precision="FP32">
					<dim>1</dim>
					<dim>64</dim>
					<dim>46</dim>
					<dim>62</dim>
				</port>
				<port id="1" precision="FP32">
					<dim>1</dim>
					<dim>64</dim>
					<dim>1</dim>
					<dim>1</dim>
				</port>
			</input>
			<output>
				<port id="2" precision="FP32" names="2942">
					<dim>1</dim>
					<dim>64</dim>
					<dim>46</dim>
					<dim>62</dim>
				</port>
			</output>
		</layer>
		<layer id="146" name="487" type="Add" version="opset1">
			<data auto_broadcast="numpy"/>
			<rt_info>
				<attribute name="fused_names" version="0" value="487"/>
			</rt_info>
			<input>
				<port id="0" precision="FP32">
					<dim>1</dim>
					<dim>64</dim>
					<dim>46</dim>
					<dim>62</dim>
				</port>
				<port id="1" precision="FP32">
					<dim>1</dim>
					<dim>64</dim>
					<dim>46</dim>
					<dim>62</dim>
				</port>
			</input>
			<output>
				<port id="2" precision="FP32" names="487">
					<dim>1</dim>
					<dim>64</dim>
					<dim>46</dim>
					<dim>62</dim>
				</port>
			</output>
		</layer>
		<layer id="147" name="2946" type="Const" version="opset1">
			<data element_type="f32" shape="384, 64, 1, 1" offset="737584" size="98304"/>
			<rt_info>
				<attribute name="fused_names" version="0" value="2946"/>
			</rt_info>
			<output>
				<port id="0" precision="FP32" names="2946">
					<dim>384</dim>
					<dim>64</dim>
					<dim>1</dim>
					<dim>1</dim>
				</port>
			</output>
		</layer>
		<layer id="148" name="Convolution_2918" type="Convolution" version="opset1">
			<data strides="1, 1" dilations="1, 1" pads_begin="0, 0" pads_end="0, 0" auto_pad="explicit"/>
			<rt_info>
				<attribute name="fused_names" version="0" value="Convolution_2918"/>
			</rt_info>
			<input>
				<port id="0" precision="FP32">
					<dim>1</dim>
					<dim>64</dim>
					<dim>46</dim>
					<dim>62</dim>
				</port>
				<port id="1" precision="FP32">
					<dim>384</dim>
					<dim>64</dim>
					<dim>1</dim>
					<dim>1</dim>
				</port>
			</input>
			<output>
				<port id="2" precision="FP32">
					<dim>1</dim>
					<dim>384</dim>
					<dim>46</dim>
					<dim>62</dim>
				</port>
			</output>
		</layer>
		<layer id="149" name="Reshape_2938" type="Const" version="opset1">
			<data element_type="f32" shape="1, 384, 1, 1" offset="835888" size="1536"/>
			<output>
				<port id="0" precision="FP32">
					<dim>1</dim>
					<dim>384</dim>
					<dim>1</dim>
					<dim>1</dim>
				</port>
			</output>
		</layer>
		<layer id="150" name="2945" type="Add" version="opset1">
			<data auto_broadcast="numpy"/>
			<rt_info>
				<attribute name="fused_names" version="0" value="2945, Concat_2937, Reshape_2938"/>
			</rt_info>
			<input>
				<port id="0" precision="FP32">
					<dim>1</dim>
					<dim>384</dim>
					<dim>46</dim>
					<dim>62</dim>
				</port>
				<port id="1" precision="FP32">
					<dim>1</dim>
					<dim>384</dim>
					<dim>1</dim>
					<dim>1</dim>
				</port>
			</input>
			<output>
				<port id="2" precision="FP32" names="2945">
					<dim>1</dim>
					<dim>384</dim>
					<dim>46</dim>
					<dim>62</dim>
				</port>
			</output>
		</layer>
		<layer id="151" name="492" type="Clamp" version="opset1">
			<data min="0" max="6"/>
			<rt_info>
				<attribute name="fused_names" version="0" value="492, Maximum_2966"/>
			</rt_info>
			<input>
				<port id="0" precision="FP32">
					<dim>1</dim>
					<dim>384</dim>
					<dim>46</dim>
					<dim>62</dim>
				</port>
			</input>
			<output>
				<port id="1" precision="FP32" names="492">
					<dim>1</dim>
					<dim>384</dim>
					<dim>46</dim>
					<dim>62</dim>
				</port>
			</output>
		</layer>
		<layer id="152" name="Reshape_2975" type="Const" version="opset1">
			<data element_type="f32" shape="384, 1, 1, 3, 3" offset="837424" size="13824"/>
			<output>
				<port id="0" precision="FP32">
					<dim>384</dim>
					<dim>1</dim>
					<dim>1</dim>
					<dim>3</dim>
					<dim>3</dim>
				</port>
			</output>
		</layer>
		<layer id="153" name="GroupConvolution_3041" type="GroupConvolution" version="opset1">
			<data strides="1, 1" pads_begin="1, 1" pads_end="1, 1" dilations="1, 1" auto_pad="explicit"/>
			<rt_info>
				<attribute name="fused_names" version="0" value="GroupConvolution_3041, Reshape_2975"/>
			</rt_info>
			<input>
				<port id="0" precision="FP32">
					<dim>1</dim>
					<dim>384</dim>
					<dim>46</dim>
					<dim>62</dim>
				</port>
				<port id="1" precision="FP32">
					<dim>384</dim>
					<dim>1</dim>
					<dim>1</dim>
					<dim>3</dim>
					<dim>3</dim>
				</port>
			</input>
			<output>
				<port id="2" precision="FP32">
					<dim>1</dim>
					<dim>384</dim>
					<dim>46</dim>
					<dim>62</dim>
				</port>
			</output>
		</layer>
		<layer id="154" name="Reshape_3061" type="Const" version="opset1">
			<data element_type="f32" shape="1, 384, 1, 1" offset="851248" size="1536"/>
			<output>
				<port id="0" precision="FP32">
					<dim>1</dim>
					<dim>384</dim>
					<dim>1</dim>
					<dim>1</dim>
				</port>
			</output>
		</layer>
		<layer id="155" name="2948" type="Add" version="opset1">
			<data auto_broadcast="numpy"/>
			<rt_info>
				<attribute name="fused_names" version="0" value="2948, Concat_3060, Reshape_3061"/>
			</rt_info>
			<input>
				<port id="0" precision="FP32">
					<dim>1</dim>
					<dim>384</dim>
					<dim>46</dim>
					<dim>62</dim>
				</port>
				<port id="1" precision="FP32">
					<dim>1</dim>
					<dim>384</dim>
					<dim>1</dim>
					<dim>1</dim>
				</port>
			</input>
			<output>
				<port id="2" precision="FP32" names="2948">
					<dim>1</dim>
					<dim>384</dim>
					<dim>46</dim>
					<dim>62</dim>
				</port>
			</output>
		</layer>
		<layer id="156" name="497" type="Clamp" version="opset1">
			<data min="0" max="6"/>
			<rt_info>
				<attribute name="fused_names" version="0" value="497, Maximum_3089"/>
			</rt_info>
			<input>
				<port id="0" precision="FP32">
					<dim>1</dim>
					<dim>384</dim>
					<dim>46</dim>
					<dim>62</dim>
				</port>
			</input>
			<output>
				<port id="1" precision="FP32" names="497">
					<dim>1</dim>
					<dim>384</dim>
					<dim>46</dim>
					<dim>62</dim>
				</port>
			</output>
		</layer>
		<layer id="157" name="2952" type="Const" version="opset1">
			<data element_type="f32" shape="64, 384, 1, 1" offset="852784" size="98304"/>
			<rt_info>
				<attribute name="fused_names" version="0" value="2952"/>
			</rt_info>
			<output>
				<port id="0" precision="FP32" names="2952">
					<dim>64</dim>
					<dim>384</dim>
					<dim>1</dim>
					<dim>1</dim>
				</port>
			</output>
		</layer>
		<layer id="158" name="Convolution_3091" type="Convolution" version="opset1">
			<data strides="1, 1" dilations="1, 1" pads_begin="0, 0" pads_end="0, 0" auto_pad="explicit"/>
			<rt_info>
				<attribute name="fused_names" version="0" value="Convolution_3091"/>
			</rt_info>
			<input>
				<port id="0" precision="FP32">
					<dim>1</dim>
					<dim>384</dim>
					<dim>46</dim>
					<dim>62</dim>
				</port>
				<port id="1" precision="FP32">
					<dim>64</dim>
					<dim>384</dim>
					<dim>1</dim>
					<dim>1</dim>
				</port>
			</input>
			<output>
				<port id="2" precision="FP32">
					<dim>1</dim>
					<dim>64</dim>
					<dim>46</dim>
					<dim>62</dim>
				</port>
			</output>
		</layer>
		<layer id="159" name="Reshape_3111" type="Const" version="opset1">
			<data element_type="f32" shape="1, 64, 1, 1" offset="951088" size="256"/>
			<output>
				<port id="0" precision="FP32">
					<dim>1</dim>
					<dim>64</dim>
					<dim>1</dim>
					<dim>1</dim>
				</port>
			</output>
		</layer>
		<layer id="160" name="2951" type="Add" version="opset1">
			<data auto_broadcast="numpy"/>
			<rt_info>
				<attribute name="fused_names" version="0" value="2951, Concat_3110, Reshape_3111"/>
			</rt_info>
			<input>
				<port id="0" precision="FP32">
					<dim>1</dim>
					<dim>64</dim>
					<dim>46</dim>
					<dim>62</dim>
				</port>
				<port id="1" precision="FP32">
					<dim>1</dim>
					<dim>64</dim>
					<dim>1</dim>
					<dim>1</dim>
				</port>
			</input>
			<output>
				<port id="2" precision="FP32" names="2951">
					<dim>1</dim>
					<dim>64</dim>
					<dim>46</dim>
					<dim>62</dim>
				</port>
			</output>
		</layer>
		<layer id="161" name="500" type="Add" version="opset1">
			<data auto_broadcast="numpy"/>
			<rt_info>
				<attribute name="fused_names" version="0" value="500"/>
			</rt_info>
			<input>
				<port id="0" precision="FP32">
					<dim>1</dim>
					<dim>64</dim>
					<dim>46</dim>
					<dim>62</dim>
				</port>
				<port id="1" precision="FP32">
					<dim>1</dim>
					<dim>64</dim>
					<dim>46</dim>
					<dim>62</dim>
				</port>
			</input>
			<output>
				<port id="2" precision="FP32" names="500">
					<dim>1</dim>
					<dim>64</dim>
					<dim>46</dim>
					<dim>62</dim>
				</port>
			</output>
		</layer>
		<layer id="162" name="2955" type="Const" version="opset1">
			<data element_type="f32" shape="384, 64, 1, 1" offset="951344" size="98304"/>
			<rt_info>
				<attribute name="fused_names" version="0" value="2955"/>
			</rt_info>
			<output>
				<port id="0" precision="FP32" names="2955">
					<dim>384</dim>
					<dim>64</dim>
					<dim>1</dim>
					<dim>1</dim>
				</port>
			</output>
		</layer>
		<layer id="163" name="Convolution_3140" type="Convolution" version="opset1">
			<data strides="1, 1" dilations="1, 1" pads_begin="0, 0" pads_end="0, 0" auto_pad="explicit"/>
			<rt_info>
				<attribute name="fused_names" version="0" value="Convolution_3140"/>
			</rt_info>
			<input>
				<port id="0" precision="FP32">
					<dim>1</dim>
					<dim>64</dim>
					<dim>46</dim>
					<dim>62</dim>
				</port>
				<port id="1" precision="FP32">
					<dim>384</dim>
					<dim>64</dim>
					<dim>1</dim>
					<dim>1</dim>
				</port>
			</input>
			<output>
				<port id="2" precision="FP32">
					<dim>1</dim>
					<dim>384</dim>
					<dim>46</dim>
					<dim>62</dim>
				</port>
			</output>
		</layer>
		<layer id="164" name="Reshape_3160" type="Const" version="opset1">
			<data element_type="f32" shape="1, 384, 1, 1" offset="1049648" size="1536"/>
			<output>
				<port id="0" precision="FP32">
					<dim>1</dim>
					<dim>384</dim>
					<dim>1</dim>
					<dim>1</dim>
				</port>
			</output>
		</layer>
		<layer id="165" name="2954" type="Add" version="opset1">
			<data auto_broadcast="numpy"/>
			<rt_info>
				<attribute name="fused_names" version="0" value="2954, Concat_3159, Reshape_3160"/>
			</rt_info>
			<input>
				<port id="0" precision="FP32">
					<dim>1</dim>
					<dim>384</dim>
					<dim>46</dim>
					<dim>62</dim>
				</port>
				<port id="1" precision="FP32">
					<dim>1</dim>
					<dim>384</dim>
					<dim>1</dim>
					<dim>1</dim>
				</port>
			</input>
			<output>
				<port id="2" precision="FP32" names="2954">
					<dim>1</dim>
					<dim>384</dim>
					<dim>46</dim>
					<dim>62</dim>
				</port>
			</output>
		</layer>
		<layer id="166" name="505" type="Clamp" version="opset1">
			<data min="0" max="6"/>
			<rt_info>
				<attribute name="fused_names" version="0" value="505, Maximum_3188"/>
			</rt_info>
			<input>
				<port id="0" precision="FP32">
					<dim>1</dim>
					<dim>384</dim>
					<dim>46</dim>
					<dim>62</dim>
				</port>
			</input>
			<output>
				<port id="1" precision="FP32" names="505">
					<dim>1</dim>
					<dim>384</dim>
					<dim>46</dim>
					<dim>62</dim>
				</port>
			</output>
		</layer>
		<layer id="167" name="Reshape_3197" type="Const" version="opset1">
			<data element_type="f32" shape="384, 1, 1, 3, 3" offset="1051184" size="13824"/>
			<output>
				<port id="0" precision="FP32">
					<dim>384</dim>
					<dim>1</dim>
					<dim>1</dim>
					<dim>3</dim>
					<dim>3</dim>
				</port>
			</output>
		</layer>
		<layer id="168" name="GroupConvolution_3263" type="GroupConvolution" version="opset1">
			<data strides="1, 1" pads_begin="1, 1" pads_end="1, 1" dilations="1, 1" auto_pad="explicit"/>
			<rt_info>
				<attribute name="fused_names" version="0" value="GroupConvolution_3263, Reshape_3197"/>
			</rt_info>
			<input>
				<port id="0" precision="FP32">
					<dim>1</dim>
					<dim>384</dim>
					<dim>46</dim>
					<dim>62</dim>
				</port>
				<port id="1" precision="FP32">
					<dim>384</dim>
					<dim>1</dim>
					<dim>1</dim>
					<dim>3</dim>
					<dim>3</dim>
				</port>
			</input>
			<output>
				<port id="2" precision="FP32">
					<dim>1</dim>
					<dim>384</dim>
					<dim>46</dim>
					<dim>62</dim>
				</port>
			</output>
		</layer>
		<layer id="169" name="Reshape_3283" type="Const" version="opset1">
			<data element_type="f32" shape="1, 384, 1, 1" offset="1065008" size="1536"/>
			<output>
				<port id="0" precision="FP32">
					<dim>1</dim>
					<dim>384</dim>
					<dim>1</dim>
					<dim>1</dim>
				</port>
			</output>
		</layer>
		<layer id="170" name="2957" type="Add" version="opset1">
			<data auto_broadcast="numpy"/>
			<rt_info>
				<attribute name="fused_names" version="0" value="2957, Concat_3282, Reshape_3283"/>
			</rt_info>
			<input>
				<port id="0" precision="FP32">
					<dim>1</dim>
					<dim>384</dim>
					<dim>46</dim>
					<dim>62</dim>
				</port>
				<port id="1" precision="FP32">
					<dim>1</dim>
					<dim>384</dim>
					<dim>1</dim>
					<dim>1</dim>
				</port>
			</input>
			<output>
				<port id="2" precision="FP32" names="2957">
					<dim>1</dim>
					<dim>384</dim>
					<dim>46</dim>
					<dim>62</dim>
				</port>
			</output>
		</layer>
		<layer id="171" name="510" type="Clamp" version="opset1">
			<data min="0" max="6"/>
			<rt_info>
				<attribute name="fused_names" version="0" value="510, Maximum_3311"/>
			</rt_info>
			<input>
				<port id="0" precision="FP32">
					<dim>1</dim>
					<dim>384</dim>
					<dim>46</dim>
					<dim>62</dim>
				</port>
			</input>
			<output>
				<port id="1" precision="FP32" names="510">
					<dim>1</dim>
					<dim>384</dim>
					<dim>46</dim>
					<dim>62</dim>
				</port>
			</output>
		</layer>
		<layer id="172" name="2961" type="Const" version="opset1">
			<data element_type="f32" shape="96, 384, 1, 1" offset="1066544" size="147456"/>
			<rt_info>
				<attribute name="fused_names" version="0" value="2961"/>
			</rt_info>
			<output>
				<port id="0" precision="FP32" names="2961">
					<dim>96</dim>
					<dim>384</dim>
					<dim>1</dim>
					<dim>1</dim>
				</port>
			</output>
		</layer>
		<layer id="173" name="Convolution_3313" type="Convolution" version="opset1">
			<data strides="1, 1" dilations="1, 1" pads_begin="0, 0" pads_end="0, 0" auto_pad="explicit"/>
			<rt_info>
				<attribute name="fused_names" version="0" value="Convolution_3313"/>
			</rt_info>
			<input>
				<port id="0" precision="FP32">
					<dim>1</dim>
					<dim>384</dim>
					<dim>46</dim>
					<dim>62</dim>
				</port>
				<port id="1" precision="FP32">
					<dim>96</dim>
					<dim>384</dim>
					<dim>1</dim>
					<dim>1</dim>
				</port>
			</input>
			<output>
				<port id="2" precision="FP32">
					<dim>1</dim>
					<dim>96</dim>
					<dim>46</dim>
					<dim>62</dim>
				</port>
			</output>
		</layer>
		<layer id="174" name="Reshape_3333" type="Const" version="opset1">
			<data element_type="f32" shape="1, 96, 1, 1" offset="1214000" size="384"/>
			<output>
				<port id="0" precision="FP32">
					<dim>1</dim>
					<dim>96</dim>
					<dim>1</dim>
					<dim>1</dim>
				</port>
			</output>
		</layer>
		<layer id="175" name="2960" type="Add" version="opset1">
			<data auto_broadcast="numpy"/>
			<rt_info>
				<attribute name="fused_names" version="0" value="2960, Concat_3332, Reshape_3333"/>
			</rt_info>
			<input>
				<port id="0" precision="FP32">
					<dim>1</dim>
					<dim>96</dim>
					<dim>46</dim>
					<dim>62</dim>
				</port>
				<port id="1" precision="FP32">
					<dim>1</dim>
					<dim>96</dim>
					<dim>1</dim>
					<dim>1</dim>
				</port>
			</input>
			<output>
				<port id="2" precision="FP32" names="2960">
					<dim>1</dim>
					<dim>96</dim>
					<dim>46</dim>
					<dim>62</dim>
				</port>
			</output>
		</layer>
		<layer id="176" name="2964" type="Const" version="opset1">
			<data element_type="f32" shape="576, 96, 1, 1" offset="1214384" size="221184"/>
			<rt_info>
				<attribute name="fused_names" version="0" value="2964"/>
			</rt_info>
			<output>
				<port id="0" precision="FP32" names="2964">
					<dim>576</dim>
					<dim>96</dim>
					<dim>1</dim>
					<dim>1</dim>
				</port>
			</output>
		</layer>
		<layer id="177" name="Convolution_3361" type="Convolution" version="opset1">
			<data strides="1, 1" dilations="1, 1" pads_begin="0, 0" pads_end="0, 0" auto_pad="explicit"/>
			<rt_info>
				<attribute name="fused_names" version="0" value="Convolution_3361"/>
			</rt_info>
			<input>
				<port id="0" precision="FP32">
					<dim>1</dim>
					<dim>96</dim>
					<dim>46</dim>
					<dim>62</dim>
				</port>
				<port id="1" precision="FP32">
					<dim>576</dim>
					<dim>96</dim>
					<dim>1</dim>
					<dim>1</dim>
				</port>
			</input>
			<output>
				<port id="2" precision="FP32">
					<dim>1</dim>
					<dim>576</dim>
					<dim>46</dim>
					<dim>62</dim>
				</port>
			</output>
		</layer>
		<layer id="178" name="Reshape_3381" type="Const" version="opset1">
			<data element_type="f32" shape="1, 576, 1, 1" offset="1435568" size="2304"/>
			<output>
				<port id="0" precision="FP32">
					<dim>1</dim>
					<dim>576</dim>
					<dim>1</dim>
					<dim>1</dim>
				</port>
			</output>
		</layer>
		<layer id="179" name="2963" type="Add" version="opset1">
			<data auto_broadcast="numpy"/>
			<rt_info>
				<attribute name="fused_names" version="0" value="2963, Concat_3380, Reshape_3381"/>
			</rt_info>
			<input>
				<port id="0" precision="FP32">
					<dim>1</dim>
					<dim>576</dim>
					<dim>46</dim>
					<dim>62</dim>
				</port>
				<port id="1" precision="FP32">
					<dim>1</dim>
					<dim>576</dim>
					<dim>1</dim>
					<dim>1</dim>
				</port>
			</input>
			<output>
				<port id="2" precision="FP32" names="2963">
					<dim>1</dim>
					<dim>576</dim>
					<dim>46</dim>
					<dim>62</dim>
				</port>
			</output>
		</layer>
		<layer id="180" name="517" type="Clamp" version="opset1">
			<data min="0" max="6"/>
			<rt_info>
				<attribute name="fused_names" version="0" value="517, Maximum_3409"/>
			</rt_info>
			<input>
				<port id="0" precision="FP32">
					<dim>1</dim>
					<dim>576</dim>
					<dim>46</dim>
					<dim>62</dim>
				</port>
			</input>
			<output>
				<port id="1" precision="FP32" names="517">
					<dim>1</dim>
					<dim>576</dim>
					<dim>46</dim>
					<dim>62</dim>
				</port>
			</output>
		</layer>
		<layer id="181" name="Reshape_3418" type="Const" version="opset1">
			<data element_type="f32" shape="576, 1, 1, 3, 3" offset="1437872" size="20736"/>
			<output>
				<port id="0" precision="FP32">
					<dim>576</dim>
					<dim>1</dim>
					<dim>1</dim>
					<dim>3</dim>
					<dim>3</dim>
				</port>
			</output>
		</layer>
		<layer id="182" name="GroupConvolution_3484" type="GroupConvolution" version="opset1">
			<data strides="1, 1" pads_begin="1, 1" pads_end="1, 1" dilations="1, 1" auto_pad="explicit"/>
			<rt_info>
				<attribute name="fused_names" version="0" value="GroupConvolution_3484, Reshape_3418"/>
			</rt_info>
			<input>
				<port id="0" precision="FP32">
					<dim>1</dim>
					<dim>576</dim>
					<dim>46</dim>
					<dim>62</dim>
				</port>
				<port id="1" precision="FP32">
					<dim>576</dim>
					<dim>1</dim>
					<dim>1</dim>
					<dim>3</dim>
					<dim>3</dim>
				</port>
			</input>
			<output>
				<port id="2" precision="FP32">
					<dim>1</dim>
					<dim>576</dim>
					<dim>46</dim>
					<dim>62</dim>
				</port>
			</output>
		</layer>
		<layer id="183" name="Reshape_3504" type="Const" version="opset1">
			<data element_type="f32" shape="1, 576, 1, 1" offset="1458608" size="2304"/>
			<output>
				<port id="0" precision="FP32">
					<dim>1</dim>
					<dim>576</dim>
					<dim>1</dim>
					<dim>1</dim>
				</port>
			</output>
		</layer>
		<layer id="184" name="2966" type="Add" version="opset1">
			<data auto_broadcast="numpy"/>
			<rt_info>
				<attribute name="fused_names" version="0" value="2966, Concat_3503, Reshape_3504"/>
			</rt_info>
			<input>
				<port id="0" precision="FP32">
					<dim>1</dim>
					<dim>576</dim>
					<dim>46</dim>
					<dim>62</dim>
				</port>
				<port id="1" precision="FP32">
					<dim>1</dim>
					<dim>576</dim>
					<dim>1</dim>
					<dim>1</dim>
				</port>
			</input>
			<output>
				<port id="2" precision="FP32" names="2966">
					<dim>1</dim>
					<dim>576</dim>
					<dim>46</dim>
					<dim>62</dim>
				</port>
			</output>
		</layer>
		<layer id="185" name="522" type="Clamp" version="opset1">
			<data min="0" max="6"/>
			<rt_info>
				<attribute name="fused_names" version="0" value="522, Maximum_3532"/>
			</rt_info>
			<input>
				<port id="0" precision="FP32">
					<dim>1</dim>
					<dim>576</dim>
					<dim>46</dim>
					<dim>62</dim>
				</port>
			</input>
			<output>
				<port id="1" precision="FP32" names="522">
					<dim>1</dim>
					<dim>576</dim>
					<dim>46</dim>
					<dim>62</dim>
				</port>
			</output>
		</layer>
		<layer id="186" name="2970" type="Const" version="opset1">
			<data element_type="f32" shape="96, 576, 1, 1" offset="1460912" size="221184"/>
			<rt_info>
				<attribute name="fused_names" version="0" value="2970"/>
			</rt_info>
			<output>
				<port id="0" precision="FP32" names="2970">
					<dim>96</dim>
					<dim>576</dim>
					<dim>1</dim>
					<dim>1</dim>
				</port>
			</output>
		</layer>
		<layer id="187" name="Convolution_3534" type="Convolution" version="opset1">
			<data strides="1, 1" dilations="1, 1" pads_begin="0, 0" pads_end="0, 0" auto_pad="explicit"/>
			<rt_info>
				<attribute name="fused_names" version="0" value="Convolution_3534"/>
			</rt_info>
			<input>
				<port id="0" precision="FP32">
					<dim>1</dim>
					<dim>576</dim>
					<dim>46</dim>
					<dim>62</dim>
				</port>
				<port id="1" precision="FP32">
					<dim>96</dim>
					<dim>576</dim>
					<dim>1</dim>
					<dim>1</dim>
				</port>
			</input>
			<output>
				<port id="2" precision="FP32">
					<dim>1</dim>
					<dim>96</dim>
					<dim>46</dim>
					<dim>62</dim>
				</port>
			</output>
		</layer>
		<layer id="188" name="Reshape_3554" type="Const" version="opset1">
			<data element_type="f32" shape="1, 96, 1, 1" offset="1682096" size="384"/>
			<output>
				<port id="0" precision="FP32">
					<dim>1</dim>
					<dim>96</dim>
					<dim>1</dim>
					<dim>1</dim>
				</port>
			</output>
		</layer>
		<layer id="189" name="2969" type="Add" version="opset1">
			<data auto_broadcast="numpy"/>
			<rt_info>
				<attribute name="fused_names" version="0" value="2969, Concat_3553, Reshape_3554"/>
			</rt_info>
			<input>
				<port id="0" precision="FP32">
					<dim>1</dim>
					<dim>96</dim>
					<dim>46</dim>
					<dim>62</dim>
				</port>
				<port id="1" precision="FP32">
					<dim>1</dim>
					<dim>96</dim>
					<dim>1</dim>
					<dim>1</dim>
				</port>
			</input>
			<output>
				<port id="2" precision="FP32" names="2969">
					<dim>1</dim>
					<dim>96</dim>
					<dim>46</dim>
					<dim>62</dim>
				</port>
			</output>
		</layer>
		<layer id="190" name="525" type="Add" version="opset1">
			<data auto_broadcast="numpy"/>
			<rt_info>
				<attribute name="fused_names" version="0" value="525"/>
			</rt_info>
			<input>
				<port id="0" precision="FP32">
					<dim>1</dim>
					<dim>96</dim>
					<dim>46</dim>
					<dim>62</dim>
				</port>
				<port id="1" precision="FP32">
					<dim>1</dim>
					<dim>96</dim>
					<dim>46</dim>
					<dim>62</dim>
				</port>
			</input>
			<output>
				<port id="2" precision="FP32" names="525">
					<dim>1</dim>
					<dim>96</dim>
					<dim>46</dim>
					<dim>62</dim>
				</port>
			</output>
		</layer>
		<layer id="191" name="2973" type="Const" version="opset1">
			<data element_type="f32" shape="576, 96, 1, 1" offset="1682480" size="221184"/>
			<rt_info>
				<attribute name="fused_names" version="0" value="2973"/>
			</rt_info>
			<output>
				<port id="0" precision="FP32" names="2973">
					<dim>576</dim>
					<dim>96</dim>
					<dim>1</dim>
					<dim>1</dim>
				</port>
			</output>
		</layer>
		<layer id="192" name="Convolution_3583" type="Convolution" version="opset1">
			<data strides="1, 1" dilations="1, 1" pads_begin="0, 0" pads_end="0, 0" auto_pad="explicit"/>
			<rt_info>
				<attribute name="fused_names" version="0" value="Convolution_3583"/>
			</rt_info>
			<input>
				<port id="0" precision="FP32">
					<dim>1</dim>
					<dim>96</dim>
					<dim>46</dim>
					<dim>62</dim>
				</port>
				<port id="1" precision="FP32">
					<dim>576</dim>
					<dim>96</dim>
					<dim>1</dim>
					<dim>1</dim>
				</port>
			</input>
			<output>
				<port id="2" precision="FP32">
					<dim>1</dim>
					<dim>576</dim>
					<dim>46</dim>
					<dim>62</dim>
				</port>
			</output>
		</layer>
		<layer id="193" name="Reshape_3603" type="Const" version="opset1">
			<data element_type="f32" shape="1, 576, 1, 1" offset="1903664" size="2304"/>
			<output>
				<port id="0" precision="FP32">
					<dim>1</dim>
					<dim>576</dim>
					<dim>1</dim>
					<dim>1</dim>
				</port>
			</output>
		</layer>
		<layer id="194" name="2972" type="Add" version="opset1">
			<data auto_broadcast="numpy"/>
			<rt_info>
				<attribute name="fused_names" version="0" value="2972, Concat_3602, Reshape_3603"/>
			</rt_info>
			<input>
				<port id="0" precision="FP32">
					<dim>1</dim>
					<dim>576</dim>
					<dim>46</dim>
					<dim>62</dim>
				</port>
				<port id="1" precision="FP32">
					<dim>1</dim>
					<dim>576</dim>
					<dim>1</dim>
					<dim>1</dim>
				</port>
			</input>
			<output>
				<port id="2" precision="FP32" names="2972">
					<dim>1</dim>
					<dim>576</dim>
					<dim>46</dim>
					<dim>62</dim>
				</port>
			</output>
		</layer>
		<layer id="195" name="530" type="Clamp" version="opset1">
			<data min="0" max="6"/>
			<rt_info>
				<attribute name="fused_names" version="0" value="530, Maximum_3631"/>
			</rt_info>
			<input>
				<port id="0" precision="FP32">
					<dim>1</dim>
					<dim>576</dim>
					<dim>46</dim>
					<dim>62</dim>
				</port>
			</input>
			<output>
				<port id="1" precision="FP32" names="530">
					<dim>1</dim>
					<dim>576</dim>
					<dim>46</dim>
					<dim>62</dim>
				</port>
			</output>
		</layer>
		<layer id="196" name="Reshape_3640" type="Const" version="opset1">
			<data element_type="f32" shape="576, 1, 1, 3, 3" offset="1905968" size="20736"/>
			<output>
				<port id="0" precision="FP32">
					<dim>576</dim>
					<dim>1</dim>
					<dim>1</dim>
					<dim>3</dim>
					<dim>3</dim>
				</port>
			</output>
		</layer>
		<layer id="197" name="GroupConvolution_3706" type="GroupConvolution" version="opset1">
			<data strides="1, 1" pads_begin="1, 1" pads_end="1, 1" dilations="1, 1" auto_pad="explicit"/>
			<rt_info>
				<attribute name="fused_names" version="0" value="GroupConvolution_3706, Reshape_3640"/>
			</rt_info>
			<input>
				<port id="0" precision="FP32">
					<dim>1</dim>
					<dim>576</dim>
					<dim>46</dim>
					<dim>62</dim>
				</port>
				<port id="1" precision="FP32">
					<dim>576</dim>
					<dim>1</dim>
					<dim>1</dim>
					<dim>3</dim>
					<dim>3</dim>
				</port>
			</input>
			<output>
				<port id="2" precision="FP32">
					<dim>1</dim>
					<dim>576</dim>
					<dim>46</dim>
					<dim>62</dim>
				</port>
			</output>
		</layer>
		<layer id="198" name="Reshape_3726" type="Const" version="opset1">
			<data element_type="f32" shape="1, 576, 1, 1" offset="1926704" size="2304"/>
			<output>
				<port id="0" precision="FP32">
					<dim>1</dim>
					<dim>576</dim>
					<dim>1</dim>
					<dim>1</dim>
				</port>
			</output>
		</layer>
		<layer id="199" name="2975" type="Add" version="opset1">
			<data auto_broadcast="numpy"/>
			<rt_info>
				<attribute name="fused_names" version="0" value="2975, Concat_3725, Reshape_3726"/>
			</rt_info>
			<input>
				<port id="0" precision="FP32">
					<dim>1</dim>
					<dim>576</dim>
					<dim>46</dim>
					<dim>62</dim>
				</port>
				<port id="1" precision="FP32">
					<dim>1</dim>
					<dim>576</dim>
					<dim>1</dim>
					<dim>1</dim>
				</port>
			</input>
			<output>
				<port id="2" precision="FP32" names="2975">
					<dim>1</dim>
					<dim>576</dim>
					<dim>46</dim>
					<dim>62</dim>
				</port>
			</output>
		</layer>
		<layer id="200" name="535" type="Clamp" version="opset1">
			<data min="0" max="6"/>
			<rt_info>
				<attribute name="fused_names" version="0" value="535, Maximum_3754"/>
			</rt_info>
			<input>
				<port id="0" precision="FP32">
					<dim>1</dim>
					<dim>576</dim>
					<dim>46</dim>
					<dim>62</dim>
				</port>
			</input>
			<output>
				<port id="1" precision="FP32" names="535">
					<dim>1</dim>
					<dim>576</dim>
					<dim>46</dim>
					<dim>62</dim>
				</port>
			</output>
		</layer>
		<layer id="201" name="2979" type="Const" version="opset1">
			<data element_type="f32" shape="96, 576, 1, 1" offset="1929008" size="221184"/>
			<rt_info>
				<attribute name="fused_names" version="0" value="2979"/>
			</rt_info>
			<output>
				<port id="0" precision="FP32" names="2979">
					<dim>96</dim>
					<dim>576</dim>
					<dim>1</dim>
					<dim>1</dim>
				</port>
			</output>
		</layer>
		<layer id="202" name="Convolution_3756" type="Convolution" version="opset1">
			<data strides="1, 1" dilations="1, 1" pads_begin="0, 0" pads_end="0, 0" auto_pad="explicit"/>
			<rt_info>
				<attribute name="fused_names" version="0" value="Convolution_3756"/>
			</rt_info>
			<input>
				<port id="0" precision="FP32">
					<dim>1</dim>
					<dim>576</dim>
					<dim>46</dim>
					<dim>62</dim>
				</port>
				<port id="1" precision="FP32">
					<dim>96</dim>
					<dim>576</dim>
					<dim>1</dim>
					<dim>1</dim>
				</port>
			</input>
			<output>
				<port id="2" precision="FP32">
					<dim>1</dim>
					<dim>96</dim>
					<dim>46</dim>
					<dim>62</dim>
				</port>
			</output>
		</layer>
		<layer id="203" name="Reshape_3776" type="Const" version="opset1">
			<data element_type="f32" shape="1, 96, 1, 1" offset="2150192" size="384"/>
			<output>
				<port id="0" precision="FP32">
					<dim>1</dim>
					<dim>96</dim>
					<dim>1</dim>
					<dim>1</dim>
				</port>
			</output>
		</layer>
		<layer id="204" name="2978" type="Add" version="opset1">
			<data auto_broadcast="numpy"/>
			<rt_info>
				<attribute name="fused_names" version="0" value="2978, Concat_3775, Reshape_3776"/>
			</rt_info>
			<input>
				<port id="0" precision="FP32">
					<dim>1</dim>
					<dim>96</dim>
					<dim>46</dim>
					<dim>62</dim>
				</port>
				<port id="1" precision="FP32">
					<dim>1</dim>
					<dim>96</dim>
					<dim>1</dim>
					<dim>1</dim>
				</port>
			</input>
			<output>
				<port id="2" precision="FP32" names="2978">
					<dim>1</dim>
					<dim>96</dim>
					<dim>46</dim>
					<dim>62</dim>
				</port>
			</output>
		</layer>
		<layer id="205" name="538" type="Add" version="opset1">
			<data auto_broadcast="numpy"/>
			<rt_info>
				<attribute name="fused_names" version="0" value="538"/>
			</rt_info>
			<input>
				<port id="0" precision="FP32">
					<dim>1</dim>
					<dim>96</dim>
					<dim>46</dim>
					<dim>62</dim>
				</port>
				<port id="1" precision="FP32">
					<dim>1</dim>
					<dim>96</dim>
					<dim>46</dim>
					<dim>62</dim>
				</port>
			</input>
			<output>
				<port id="2" precision="FP32" names="538">
					<dim>1</dim>
					<dim>96</dim>
					<dim>46</dim>
					<dim>62</dim>
				</port>
			</output>
		</layer>
		<layer id="206" name="neck.lateral_convs.1.conv.weight" type="Const" version="opset1">
			<data element_type="f32" shape="64, 96, 1, 1" offset="2150576" size="24576"/>
			<rt_info>
				<attribute name="fused_names" version="0" value="neck.lateral_convs.1.conv.weight"/>
			</rt_info>
			<output>
				<port id="0" precision="FP32" names="neck.lateral_convs.1.conv.weight">
					<dim>64</dim>
					<dim>96</dim>
					<dim>1</dim>
					<dim>1</dim>
				</port>
			</output>
		</layer>
		<layer id="207" name="Convolution_4739" type="Convolution" version="opset1">
			<data strides="1, 1" dilations="1, 1" pads_begin="0, 0" pads_end="0, 0" auto_pad="explicit"/>
			<rt_info>
				<attribute name="fused_names" version="0" value="Convolution_4739"/>
			</rt_info>
			<input>
				<port id="0" precision="FP32">
					<dim>1</dim>
					<dim>96</dim>
					<dim>46</dim>
					<dim>62</dim>
				</port>
				<port id="1" precision="FP32">
					<dim>64</dim>
					<dim>96</dim>
					<dim>1</dim>
					<dim>1</dim>
				</port>
			</input>
			<output>
				<port id="2" precision="FP32">
					<dim>1</dim>
					<dim>64</dim>
					<dim>46</dim>
					<dim>62</dim>
				</port>
			</output>
		</layer>
		<layer id="208" name="Reshape_4759" type="Const" version="opset1">
			<data element_type="f32" shape="1, 64, 1, 1" offset="2175152" size="256"/>
			<output>
				<port id="0" precision="FP32">
					<dim>1</dim>
					<dim>64</dim>
					<dim>1</dim>
					<dim>1</dim>
				</port>
			</output>
		</layer>
		<layer id="209" name="590" type="Add" version="opset1">
			<data auto_broadcast="numpy"/>
			<rt_info>
				<attribute name="fused_names" version="0" value="590, Concat_4758, Reshape_4759"/>
			</rt_info>
			<input>
				<port id="0" precision="FP32">
					<dim>1</dim>
					<dim>64</dim>
					<dim>46</dim>
					<dim>62</dim>
				</port>
				<port id="1" precision="FP32">
					<dim>1</dim>
					<dim>64</dim>
					<dim>1</dim>
					<dim>1</dim>
				</port>
			</input>
			<output>
				<port id="2" precision="FP32" names="590">
					<dim>1</dim>
					<dim>64</dim>
					<dim>46</dim>
					<dim>62</dim>
				</port>
			</output>
		</layer>
		<layer id="210" name="2982" type="Const" version="opset1">
			<data element_type="f32" shape="576, 96, 1, 1" offset="2175408" size="221184"/>
			<rt_info>
				<attribute name="fused_names" version="0" value="2982"/>
			</rt_info>
			<output>
				<port id="0" precision="FP32" names="2982">
					<dim>576</dim>
					<dim>96</dim>
					<dim>1</dim>
					<dim>1</dim>
				</port>
			</output>
		</layer>
		<layer id="211" name="Convolution_3805" type="Convolution" version="opset1">
			<data strides="1, 1" dilations="1, 1" pads_begin="0, 0" pads_end="0, 0" auto_pad="explicit"/>
			<rt_info>
				<attribute name="fused_names" version="0" value="Convolution_3805"/>
			</rt_info>
			<input>
				<port id="0" precision="FP32">
					<dim>1</dim>
					<dim>96</dim>
					<dim>46</dim>
					<dim>62</dim>
				</port>
				<port id="1" precision="FP32">
					<dim>576</dim>
					<dim>96</dim>
					<dim>1</dim>
					<dim>1</dim>
				</port>
			</input>
			<output>
				<port id="2" precision="FP32">
					<dim>1</dim>
					<dim>576</dim>
					<dim>46</dim>
					<dim>62</dim>
				</port>
			</output>
		</layer>
		<layer id="212" name="Reshape_3825" type="Const" version="opset1">
			<data element_type="f32" shape="1, 576, 1, 1" offset="2396592" size="2304"/>
			<output>
				<port id="0" precision="FP32">
					<dim>1</dim>
					<dim>576</dim>
					<dim>1</dim>
					<dim>1</dim>
				</port>
			</output>
		</layer>
		<layer id="213" name="2981" type="Add" version="opset1">
			<data auto_broadcast="numpy"/>
			<rt_info>
				<attribute name="fused_names" version="0" value="2981, Concat_3824, Reshape_3825"/>
			</rt_info>
			<input>
				<port id="0" precision="FP32">
					<dim>1</dim>
					<dim>576</dim>
					<dim>46</dim>
					<dim>62</dim>
				</port>
				<port id="1" precision="FP32">
					<dim>1</dim>
					<dim>576</dim>
					<dim>1</dim>
					<dim>1</dim>
				</port>
			</input>
			<output>
				<port id="2" precision="FP32" names="2981">
					<dim>1</dim>
					<dim>576</dim>
					<dim>46</dim>
					<dim>62</dim>
				</port>
			</output>
		</layer>
		<layer id="214" name="543" type="Clamp" version="opset1">
			<data min="0" max="6"/>
			<rt_info>
				<attribute name="fused_names" version="0" value="543, Maximum_3853"/>
			</rt_info>
			<input>
				<port id="0" precision="FP32">
					<dim>1</dim>
					<dim>576</dim>
					<dim>46</dim>
					<dim>62</dim>
				</port>
			</input>
			<output>
				<port id="1" precision="FP32" names="543">
					<dim>1</dim>
					<dim>576</dim>
					<dim>46</dim>
					<dim>62</dim>
				</port>
			</output>
		</layer>
		<layer id="215" name="Reshape_3862" type="Const" version="opset1">
			<data element_type="f32" shape="576, 1, 1, 3, 3" offset="2398896" size="20736"/>
			<output>
				<port id="0" precision="FP32">
					<dim>576</dim>
					<dim>1</dim>
					<dim>1</dim>
					<dim>3</dim>
					<dim>3</dim>
				</port>
			</output>
		</layer>
		<layer id="216" name="GroupConvolution_3928" type="GroupConvolution" version="opset1">
			<data strides="2, 2" pads_begin="1, 1" pads_end="1, 1" dilations="1, 1" auto_pad="explicit"/>
			<rt_info>
				<attribute name="fused_names" version="0" value="GroupConvolution_3928, Reshape_3862"/>
			</rt_info>
			<input>
				<port id="0" precision="FP32">
					<dim>1</dim>
					<dim>576</dim>
					<dim>46</dim>
					<dim>62</dim>
				</port>
				<port id="1" precision="FP32">
					<dim>576</dim>
					<dim>1</dim>
					<dim>1</dim>
					<dim>3</dim>
					<dim>3</dim>
				</port>
			</input>
			<output>
				<port id="2" precision="FP32">
					<dim>1</dim>
					<dim>576</dim>
					<dim>23</dim>
					<dim>31</dim>
				</port>
			</output>
		</layer>
		<layer id="217" name="Reshape_3948" type="Const" version="opset1">
			<data element_type="f32" shape="1, 576, 1, 1" offset="2419632" size="2304"/>
			<output>
				<port id="0" precision="FP32">
					<dim>1</dim>
					<dim>576</dim>
					<dim>1</dim>
					<dim>1</dim>
				</port>
			</output>
		</layer>
		<layer id="218" name="2984" type="Add" version="opset1">
			<data auto_broadcast="numpy"/>
			<rt_info>
				<attribute name="fused_names" version="0" value="2984, Concat_3947, Reshape_3948"/>
			</rt_info>
			<input>
				<port id="0" precision="FP32">
					<dim>1</dim>
					<dim>576</dim>
					<dim>23</dim>
					<dim>31</dim>
				</port>
				<port id="1" precision="FP32">
					<dim>1</dim>
					<dim>576</dim>
					<dim>1</dim>
					<dim>1</dim>
				</port>
			</input>
			<output>
				<port id="2" precision="FP32" names="2984">
					<dim>1</dim>
					<dim>576</dim>
					<dim>23</dim>
					<dim>31</dim>
				</port>
			</output>
		</layer>
		<layer id="219" name="548" type="Clamp" version="opset1">
			<data min="0" max="6"/>
			<rt_info>
				<attribute name="fused_names" version="0" value="548, Maximum_3976"/>
			</rt_info>
			<input>
				<port id="0" precision="FP32">
					<dim>1</dim>
					<dim>576</dim>
					<dim>23</dim>
					<dim>31</dim>
				</port>
			</input>
			<output>
				<port id="1" precision="FP32" names="548">
					<dim>1</dim>
					<dim>576</dim>
					<dim>23</dim>
					<dim>31</dim>
				</port>
			</output>
		</layer>
		<layer id="220" name="2988" type="Const" version="opset1">
			<data element_type="f32" shape="160, 576, 1, 1" offset="2421936" size="368640"/>
			<rt_info>
				<attribute name="fused_names" version="0" value="2988"/>
			</rt_info>
			<output>
				<port id="0" precision="FP32" names="2988">
					<dim>160</dim>
					<dim>576</dim>
					<dim>1</dim>
					<dim>1</dim>
				</port>
			</output>
		</layer>
		<layer id="221" name="Convolution_3978" type="Convolution" version="opset1">
			<data strides="1, 1" dilations="1, 1" pads_begin="0, 0" pads_end="0, 0" auto_pad="explicit"/>
			<rt_info>
				<attribute name="fused_names" version="0" value="Convolution_3978"/>
			</rt_info>
			<input>
				<port id="0" precision="FP32">
					<dim>1</dim>
					<dim>576</dim>
					<dim>23</dim>
					<dim>31</dim>
				</port>
				<port id="1" precision="FP32">
					<dim>160</dim>
					<dim>576</dim>
					<dim>1</dim>
					<dim>1</dim>
				</port>
			</input>
			<output>
				<port id="2" precision="FP32">
					<dim>1</dim>
					<dim>160</dim>
					<dim>23</dim>
					<dim>31</dim>
				</port>
			</output>
		</layer>
		<layer id="222" name="Reshape_3998" type="Const" version="opset1">
			<data element_type="f32" shape="1, 160, 1, 1" offset="2790576" size="640"/>
			<output>
				<port id="0" precision="FP32">
					<dim>1</dim>
					<dim>160</dim>
					<dim>1</dim>
					<dim>1</dim>
				</port>
			</output>
		</layer>
		<layer id="223" name="2987" type="Add" version="opset1">
			<data auto_broadcast="numpy"/>
			<rt_info>
				<attribute name="fused_names" version="0" value="2987, Concat_3997, Reshape_3998"/>
			</rt_info>
			<input>
				<port id="0" precision="FP32">
					<dim>1</dim>
					<dim>160</dim>
					<dim>23</dim>
					<dim>31</dim>
				</port>
				<port id="1" precision="FP32">
					<dim>1</dim>
					<dim>160</dim>
					<dim>1</dim>
					<dim>1</dim>
				</port>
			</input>
			<output>
				<port id="2" precision="FP32" names="2987">
					<dim>1</dim>
					<dim>160</dim>
					<dim>23</dim>
					<dim>31</dim>
				</port>
			</output>
		</layer>
		<layer id="224" name="2991" type="Const" version="opset1">
			<data element_type="f32" shape="960, 160, 1, 1" offset="2791216" size="614400"/>
			<rt_info>
				<attribute name="fused_names" version="0" value="2991"/>
			</rt_info>
			<output>
				<port id="0" precision="FP32" names="2991">
					<dim>960</dim>
					<dim>160</dim>
					<dim>1</dim>
					<dim>1</dim>
				</port>
			</output>
		</layer>
		<layer id="225" name="Convolution_4026" type="Convolution" version="opset1">
			<data strides="1, 1" dilations="1, 1" pads_begin="0, 0" pads_end="0, 0" auto_pad="explicit"/>
			<rt_info>
				<attribute name="fused_names" version="0" value="Convolution_4026"/>
			</rt_info>
			<input>
				<port id="0" precision="FP32">
					<dim>1</dim>
					<dim>160</dim>
					<dim>23</dim>
					<dim>31</dim>
				</port>
				<port id="1" precision="FP32">
					<dim>960</dim>
					<dim>160</dim>
					<dim>1</dim>
					<dim>1</dim>
				</port>
			</input>
			<output>
				<port id="2" precision="FP32">
					<dim>1</dim>
					<dim>960</dim>
					<dim>23</dim>
					<dim>31</dim>
				</port>
			</output>
		</layer>
		<layer id="226" name="Reshape_4046" type="Const" version="opset1">
			<data element_type="f32" shape="1, 960, 1, 1" offset="3405616" size="3840"/>
			<output>
				<port id="0" precision="FP32">
					<dim>1</dim>
					<dim>960</dim>
					<dim>1</dim>
					<dim>1</dim>
				</port>
			</output>
		</layer>
		<layer id="227" name="2990" type="Add" version="opset1">
			<data auto_broadcast="numpy"/>
			<rt_info>
				<attribute name="fused_names" version="0" value="2990, Concat_4045, Reshape_4046"/>
			</rt_info>
			<input>
				<port id="0" precision="FP32">
					<dim>1</dim>
					<dim>960</dim>
					<dim>23</dim>
					<dim>31</dim>
				</port>
				<port id="1" precision="FP32">
					<dim>1</dim>
					<dim>960</dim>
					<dim>1</dim>
					<dim>1</dim>
				</port>
			</input>
			<output>
				<port id="2" precision="FP32" names="2990">
					<dim>1</dim>
					<dim>960</dim>
					<dim>23</dim>
					<dim>31</dim>
				</port>
			</output>
		</layer>
		<layer id="228" name="555" type="Clamp" version="opset1">
			<data min="0" max="6"/>
			<rt_info>
				<attribute name="fused_names" version="0" value="555, Maximum_4074"/>
			</rt_info>
			<input>
				<port id="0" precision="FP32">
					<dim>1</dim>
					<dim>960</dim>
					<dim>23</dim>
					<dim>31</dim>
				</port>
			</input>
			<output>
				<port id="1" precision="FP32" names="555">
					<dim>1</dim>
					<dim>960</dim>
					<dim>23</dim>
					<dim>31</dim>
				</port>
			</output>
		</layer>
		<layer id="229" name="Reshape_4083" type="Const" version="opset1">
			<data element_type="f32" shape="960, 1, 1, 3, 3" offset="3409456" size="34560"/>
			<output>
				<port id="0" precision="FP32">
					<dim>960</dim>
					<dim>1</dim>
					<dim>1</dim>
					<dim>3</dim>
					<dim>3</dim>
				</port>
			</output>
		</layer>
		<layer id="230" name="GroupConvolution_4149" type="GroupConvolution" version="opset1">
			<data strides="1, 1" pads_begin="1, 1" pads_end="1, 1" dilations="1, 1" auto_pad="explicit"/>
			<rt_info>
				<attribute name="fused_names" version="0" value="GroupConvolution_4149, Reshape_4083"/>
			</rt_info>
			<input>
				<port id="0" precision="FP32">
					<dim>1</dim>
					<dim>960</dim>
					<dim>23</dim>
					<dim>31</dim>
				</port>
				<port id="1" precision="FP32">
					<dim>960</dim>
					<dim>1</dim>
					<dim>1</dim>
					<dim>3</dim>
					<dim>3</dim>
				</port>
			</input>
			<output>
				<port id="2" precision="FP32">
					<dim>1</dim>
					<dim>960</dim>
					<dim>23</dim>
					<dim>31</dim>
				</port>
			</output>
		</layer>
		<layer id="231" name="Reshape_4169" type="Const" version="opset1">
			<data element_type="f32" shape="1, 960, 1, 1" offset="3444016" size="3840"/>
			<output>
				<port id="0" precision="FP32">
					<dim>1</dim>
					<dim>960</dim>
					<dim>1</dim>
					<dim>1</dim>
				</port>
			</output>
		</layer>
		<layer id="232" name="2993" type="Add" version="opset1">
			<data auto_broadcast="numpy"/>
			<rt_info>
				<attribute name="fused_names" version="0" value="2993, Concat_4168, Reshape_4169"/>
			</rt_info>
			<input>
				<port id="0" precision="FP32">
					<dim>1</dim>
					<dim>960</dim>
					<dim>23</dim>
					<dim>31</dim>
				</port>
				<port id="1" precision="FP32">
					<dim>1</dim>
					<dim>960</dim>
					<dim>1</dim>
					<dim>1</dim>
				</port>
			</input>
			<output>
				<port id="2" precision="FP32" names="2993">
					<dim>1</dim>
					<dim>960</dim>
					<dim>23</dim>
					<dim>31</dim>
				</port>
			</output>
		</layer>
		<layer id="233" name="560" type="Clamp" version="opset1">
			<data min="0" max="6"/>
			<rt_info>
				<attribute name="fused_names" version="0" value="560, Maximum_4197"/>
			</rt_info>
			<input>
				<port id="0" precision="FP32">
					<dim>1</dim>
					<dim>960</dim>
					<dim>23</dim>
					<dim>31</dim>
				</port>
			</input>
			<output>
				<port id="1" precision="FP32" names="560">
					<dim>1</dim>
					<dim>960</dim>
					<dim>23</dim>
					<dim>31</dim>
				</port>
			</output>
		</layer>
		<layer id="234" name="2997" type="Const" version="opset1">
			<data element_type="f32" shape="160, 960, 1, 1" offset="3447856" size="614400"/>
			<rt_info>
				<attribute name="fused_names" version="0" value="2997"/>
			</rt_info>
			<output>
				<port id="0" precision="FP32" names="2997">
					<dim>160</dim>
					<dim>960</dim>
					<dim>1</dim>
					<dim>1</dim>
				</port>
			</output>
		</layer>
		<layer id="235" name="Convolution_4199" type="Convolution" version="opset1">
			<data strides="1, 1" dilations="1, 1" pads_begin="0, 0" pads_end="0, 0" auto_pad="explicit"/>
			<rt_info>
				<attribute name="fused_names" version="0" value="Convolution_4199"/>
			</rt_info>
			<input>
				<port id="0" precision="FP32">
					<dim>1</dim>
					<dim>960</dim>
					<dim>23</dim>
					<dim>31</dim>
				</port>
				<port id="1" precision="FP32">
					<dim>160</dim>
					<dim>960</dim>
					<dim>1</dim>
					<dim>1</dim>
				</port>
			</input>
			<output>
				<port id="2" precision="FP32">
					<dim>1</dim>
					<dim>160</dim>
					<dim>23</dim>
					<dim>31</dim>
				</port>
			</output>
		</layer>
		<layer id="236" name="Reshape_4219" type="Const" version="opset1">
			<data element_type="f32" shape="1, 160, 1, 1" offset="4062256" size="640"/>
			<output>
				<port id="0" precision="FP32">
					<dim>1</dim>
					<dim>160</dim>
					<dim>1</dim>
					<dim>1</dim>
				</port>
			</output>
		</layer>
		<layer id="237" name="2996" type="Add" version="opset1">
			<data auto_broadcast="numpy"/>
			<rt_info>
				<attribute name="fused_names" version="0" value="2996, Concat_4218, Reshape_4219"/>
			</rt_info>
			<input>
				<port id="0" precision="FP32">
					<dim>1</dim>
					<dim>160</dim>
					<dim>23</dim>
					<dim>31</dim>
				</port>
				<port id="1" precision="FP32">
					<dim>1</dim>
					<dim>160</dim>
					<dim>1</dim>
					<dim>1</dim>
				</port>
			</input>
			<output>
				<port id="2" precision="FP32" names="2996">
					<dim>1</dim>
					<dim>160</dim>
					<dim>23</dim>
					<dim>31</dim>
				</port>
			</output>
		</layer>
		<layer id="238" name="563" type="Add" version="opset1">
			<data auto_broadcast="numpy"/>
			<rt_info>
				<attribute name="fused_names" version="0" value="563"/>
			</rt_info>
			<input>
				<port id="0" precision="FP32">
					<dim>1</dim>
					<dim>160</dim>
					<dim>23</dim>
					<dim>31</dim>
				</port>
				<port id="1" precision="FP32">
					<dim>1</dim>
					<dim>160</dim>
					<dim>23</dim>
					<dim>31</dim>
				</port>
			</input>
			<output>
				<port id="2" precision="FP32" names="563">
					<dim>1</dim>
					<dim>160</dim>
					<dim>23</dim>
					<dim>31</dim>
				</port>
			</output>
		</layer>
		<layer id="239" name="3000" type="Const" version="opset1">
			<data element_type="f32" shape="960, 160, 1, 1" offset="4062896" size="614400"/>
			<rt_info>
				<attribute name="fused_names" version="0" value="3000"/>
			</rt_info>
			<output>
				<port id="0" precision="FP32" names="3000">
					<dim>960</dim>
					<dim>160</dim>
					<dim>1</dim>
					<dim>1</dim>
				</port>
			</output>
		</layer>
		<layer id="240" name="Convolution_4248" type="Convolution" version="opset1">
			<data strides="1, 1" dilations="1, 1" pads_begin="0, 0" pads_end="0, 0" auto_pad="explicit"/>
			<rt_info>
				<attribute name="fused_names" version="0" value="Convolution_4248"/>
			</rt_info>
			<input>
				<port id="0" precision="FP32">
					<dim>1</dim>
					<dim>160</dim>
					<dim>23</dim>
					<dim>31</dim>
				</port>
				<port id="1" precision="FP32">
					<dim>960</dim>
					<dim>160</dim>
					<dim>1</dim>
					<dim>1</dim>
				</port>
			</input>
			<output>
				<port id="2" precision="FP32">
					<dim>1</dim>
					<dim>960</dim>
					<dim>23</dim>
					<dim>31</dim>
				</port>
			</output>
		</layer>
		<layer id="241" name="Reshape_4268" type="Const" version="opset1">
			<data element_type="f32" shape="1, 960, 1, 1" offset="4677296" size="3840"/>
			<output>
				<port id="0" precision="FP32">
					<dim>1</dim>
					<dim>960</dim>
					<dim>1</dim>
					<dim>1</dim>
				</port>
			</output>
		</layer>
		<layer id="242" name="2999" type="Add" version="opset1">
			<data auto_broadcast="numpy"/>
			<rt_info>
				<attribute name="fused_names" version="0" value="2999, Concat_4267, Reshape_4268"/>
			</rt_info>
			<input>
				<port id="0" precision="FP32">
					<dim>1</dim>
					<dim>960</dim>
					<dim>23</dim>
					<dim>31</dim>
				</port>
				<port id="1" precision="FP32">
					<dim>1</dim>
					<dim>960</dim>
					<dim>1</dim>
					<dim>1</dim>
				</port>
			</input>
			<output>
				<port id="2" precision="FP32" names="2999">
					<dim>1</dim>
					<dim>960</dim>
					<dim>23</dim>
					<dim>31</dim>
				</port>
			</output>
		</layer>
		<layer id="243" name="568" type="Clamp" version="opset1">
			<data min="0" max="6"/>
			<rt_info>
				<attribute name="fused_names" version="0" value="568, Maximum_4296"/>
			</rt_info>
			<input>
				<port id="0" precision="FP32">
					<dim>1</dim>
					<dim>960</dim>
					<dim>23</dim>
					<dim>31</dim>
				</port>
			</input>
			<output>
				<port id="1" precision="FP32" names="568">
					<dim>1</dim>
					<dim>960</dim>
					<dim>23</dim>
					<dim>31</dim>
				</port>
			</output>
		</layer>
		<layer id="244" name="Reshape_4305" type="Const" version="opset1">
			<data element_type="f32" shape="960, 1, 1, 3, 3" offset="4681136" size="34560"/>
			<output>
				<port id="0" precision="FP32">
					<dim>960</dim>
					<dim>1</dim>
					<dim>1</dim>
					<dim>3</dim>
					<dim>3</dim>
				</port>
			</output>
		</layer>
		<layer id="245" name="GroupConvolution_4371" type="GroupConvolution" version="opset1">
			<data strides="1, 1" pads_begin="1, 1" pads_end="1, 1" dilations="1, 1" auto_pad="explicit"/>
			<rt_info>
				<attribute name="fused_names" version="0" value="GroupConvolution_4371, Reshape_4305"/>
			</rt_info>
			<input>
				<port id="0" precision="FP32">
					<dim>1</dim>
					<dim>960</dim>
					<dim>23</dim>
					<dim>31</dim>
				</port>
				<port id="1" precision="FP32">
					<dim>960</dim>
					<dim>1</dim>
					<dim>1</dim>
					<dim>3</dim>
					<dim>3</dim>
				</port>
			</input>
			<output>
				<port id="2" precision="FP32">
					<dim>1</dim>
					<dim>960</dim>
					<dim>23</dim>
					<dim>31</dim>
				</port>
			</output>
		</layer>
		<layer id="246" name="Reshape_4391" type="Const" version="opset1">
			<data element_type="f32" shape="1, 960, 1, 1" offset="4715696" size="3840"/>
			<output>
				<port id="0" precision="FP32">
					<dim>1</dim>
					<dim>960</dim>
					<dim>1</dim>
					<dim>1</dim>
				</port>
			</output>
		</layer>
		<layer id="247" name="3002" type="Add" version="opset1">
			<data auto_broadcast="numpy"/>
			<rt_info>
				<attribute name="fused_names" version="0" value="3002, Concat_4390, Reshape_4391"/>
			</rt_info>
			<input>
				<port id="0" precision="FP32">
					<dim>1</dim>
					<dim>960</dim>
					<dim>23</dim>
					<dim>31</dim>
				</port>
				<port id="1" precision="FP32">
					<dim>1</dim>
					<dim>960</dim>
					<dim>1</dim>
					<dim>1</dim>
				</port>
			</input>
			<output>
				<port id="2" precision="FP32" names="3002">
					<dim>1</dim>
					<dim>960</dim>
					<dim>23</dim>
					<dim>31</dim>
				</port>
			</output>
		</layer>
		<layer id="248" name="573" type="Clamp" version="opset1">
			<data min="0" max="6"/>
			<rt_info>
				<attribute name="fused_names" version="0" value="573, Maximum_4419"/>
			</rt_info>
			<input>
				<port id="0" precision="FP32">
					<dim>1</dim>
					<dim>960</dim>
					<dim>23</dim>
					<dim>31</dim>
				</port>
			</input>
			<output>
				<port id="1" precision="FP32" names="573">
					<dim>1</dim>
					<dim>960</dim>
					<dim>23</dim>
					<dim>31</dim>
				</port>
			</output>
		</layer>
		<layer id="249" name="3006" type="Const" version="opset1">
			<data element_type="f32" shape="160, 960, 1, 1" offset="4719536" size="614400"/>
			<rt_info>
				<attribute name="fused_names" version="0" value="3006"/>
			</rt_info>
			<output>
				<port id="0" precision="FP32" names="3006">
					<dim>160</dim>
					<dim>960</dim>
					<dim>1</dim>
					<dim>1</dim>
				</port>
			</output>
		</layer>
		<layer id="250" name="Convolution_4421" type="Convolution" version="opset1">
			<data strides="1, 1" dilations="1, 1" pads_begin="0, 0" pads_end="0, 0" auto_pad="explicit"/>
			<rt_info>
				<attribute name="fused_names" version="0" value="Convolution_4421"/>
			</rt_info>
			<input>
				<port id="0" precision="FP32">
					<dim>1</dim>
					<dim>960</dim>
					<dim>23</dim>
					<dim>31</dim>
				</port>
				<port id="1" precision="FP32">
					<dim>160</dim>
					<dim>960</dim>
					<dim>1</dim>
					<dim>1</dim>
				</port>
			</input>
			<output>
				<port id="2" precision="FP32">
					<dim>1</dim>
					<dim>160</dim>
					<dim>23</dim>
					<dim>31</dim>
				</port>
			</output>
		</layer>
		<layer id="251" name="Reshape_4441" type="Const" version="opset1">
			<data element_type="f32" shape="1, 160, 1, 1" offset="5333936" size="640"/>
			<output>
				<port id="0" precision="FP32">
					<dim>1</dim>
					<dim>160</dim>
					<dim>1</dim>
					<dim>1</dim>
				</port>
			</output>
		</layer>
		<layer id="252" name="3005" type="Add" version="opset1">
			<data auto_broadcast="numpy"/>
			<rt_info>
				<attribute name="fused_names" version="0" value="3005, Concat_4440, Reshape_4441"/>
			</rt_info>
			<input>
				<port id="0" precision="FP32">
					<dim>1</dim>
					<dim>160</dim>
					<dim>23</dim>
					<dim>31</dim>
				</port>
				<port id="1" precision="FP32">
					<dim>1</dim>
					<dim>160</dim>
					<dim>1</dim>
					<dim>1</dim>
				</port>
			</input>
			<output>
				<port id="2" precision="FP32" names="3005">
					<dim>1</dim>
					<dim>160</dim>
					<dim>23</dim>
					<dim>31</dim>
				</port>
			</output>
		</layer>
		<layer id="253" name="576" type="Add" version="opset1">
			<data auto_broadcast="numpy"/>
			<rt_info>
				<attribute name="fused_names" version="0" value="576"/>
			</rt_info>
			<input>
				<port id="0" precision="FP32">
					<dim>1</dim>
					<dim>160</dim>
					<dim>23</dim>
					<dim>31</dim>
				</port>
				<port id="1" precision="FP32">
					<dim>1</dim>
					<dim>160</dim>
					<dim>23</dim>
					<dim>31</dim>
				</port>
			</input>
			<output>
				<port id="2" precision="FP32" names="576">
					<dim>1</dim>
					<dim>160</dim>
					<dim>23</dim>
					<dim>31</dim>
				</port>
			</output>
		</layer>
		<layer id="254" name="3009" type="Const" version="opset1">
			<data element_type="f32" shape="960, 160, 1, 1" offset="5334576" size="614400"/>
			<rt_info>
				<attribute name="fused_names" version="0" value="3009"/>
			</rt_info>
			<output>
				<port id="0" precision="FP32" names="3009">
					<dim>960</dim>
					<dim>160</dim>
					<dim>1</dim>
					<dim>1</dim>
				</port>
			</output>
		</layer>
		<layer id="255" name="Convolution_4470" type="Convolution" version="opset1">
			<data strides="1, 1" dilations="1, 1" pads_begin="0, 0" pads_end="0, 0" auto_pad="explicit"/>
			<rt_info>
				<attribute name="fused_names" version="0" value="Convolution_4470"/>
			</rt_info>
			<input>
				<port id="0" precision="FP32">
					<dim>1</dim>
					<dim>160</dim>
					<dim>23</dim>
					<dim>31</dim>
				</port>
				<port id="1" precision="FP32">
					<dim>960</dim>
					<dim>160</dim>
					<dim>1</dim>
					<dim>1</dim>
				</port>
			</input>
			<output>
				<port id="2" precision="FP32">
					<dim>1</dim>
					<dim>960</dim>
					<dim>23</dim>
					<dim>31</dim>
				</port>
			</output>
		</layer>
		<layer id="256" name="Reshape_4490" type="Const" version="opset1">
			<data element_type="f32" shape="1, 960, 1, 1" offset="5948976" size="3840"/>
			<output>
				<port id="0" precision="FP32">
					<dim>1</dim>
					<dim>960</dim>
					<dim>1</dim>
					<dim>1</dim>
				</port>
			</output>
		</layer>
		<layer id="257" name="3008" type="Add" version="opset1">
			<data auto_broadcast="numpy"/>
			<rt_info>
				<attribute name="fused_names" version="0" value="3008, Concat_4489, Reshape_4490"/>
			</rt_info>
			<input>
				<port id="0" precision="FP32">
					<dim>1</dim>
					<dim>960</dim>
					<dim>23</dim>
					<dim>31</dim>
				</port>
				<port id="1" precision="FP32">
					<dim>1</dim>
					<dim>960</dim>
					<dim>1</dim>
					<dim>1</dim>
				</port>
			</input>
			<output>
				<port id="2" precision="FP32" names="3008">
					<dim>1</dim>
					<dim>960</dim>
					<dim>23</dim>
					<dim>31</dim>
				</port>
			</output>
		</layer>
		<layer id="258" name="581" type="Clamp" version="opset1">
			<data min="0" max="6"/>
			<rt_info>
				<attribute name="fused_names" version="0" value="581, Maximum_4518"/>
			</rt_info>
			<input>
				<port id="0" precision="FP32">
					<dim>1</dim>
					<dim>960</dim>
					<dim>23</dim>
					<dim>31</dim>
				</port>
			</input>
			<output>
				<port id="1" precision="FP32" names="581">
					<dim>1</dim>
					<dim>960</dim>
					<dim>23</dim>
					<dim>31</dim>
				</port>
			</output>
		</layer>
		<layer id="259" name="Reshape_4527" type="Const" version="opset1">
			<data element_type="f32" shape="960, 1, 1, 3, 3" offset="5952816" size="34560"/>
			<output>
				<port id="0" precision="FP32">
					<dim>960</dim>
					<dim>1</dim>
					<dim>1</dim>
					<dim>3</dim>
					<dim>3</dim>
				</port>
			</output>
		</layer>
		<layer id="260" name="GroupConvolution_4593" type="GroupConvolution" version="opset1">
			<data strides="1, 1" pads_begin="1, 1" pads_end="1, 1" dilations="1, 1" auto_pad="explicit"/>
			<rt_info>
				<attribute name="fused_names" version="0" value="GroupConvolution_4593, Reshape_4527"/>
			</rt_info>
			<input>
				<port id="0" precision="FP32">
					<dim>1</dim>
					<dim>960</dim>
					<dim>23</dim>
					<dim>31</dim>
				</port>
				<port id="1" precision="FP32">
					<dim>960</dim>
					<dim>1</dim>
					<dim>1</dim>
					<dim>3</dim>
					<dim>3</dim>
				</port>
			</input>
			<output>
				<port id="2" precision="FP32">
					<dim>1</dim>
					<dim>960</dim>
					<dim>23</dim>
					<dim>31</dim>
				</port>
			</output>
		</layer>
		<layer id="261" name="Reshape_4613" type="Const" version="opset1">
			<data element_type="f32" shape="1, 960, 1, 1" offset="5987376" size="3840"/>
			<output>
				<port id="0" precision="FP32">
					<dim>1</dim>
					<dim>960</dim>
					<dim>1</dim>
					<dim>1</dim>
				</port>
			</output>
		</layer>
		<layer id="262" name="3011" type="Add" version="opset1">
			<data auto_broadcast="numpy"/>
			<rt_info>
				<attribute name="fused_names" version="0" value="3011, Concat_4612, Reshape_4613"/>
			</rt_info>
			<input>
				<port id="0" precision="FP32">
					<dim>1</dim>
					<dim>960</dim>
					<dim>23</dim>
					<dim>31</dim>
				</port>
				<port id="1" precision="FP32">
					<dim>1</dim>
					<dim>960</dim>
					<dim>1</dim>
					<dim>1</dim>
				</port>
			</input>
			<output>
				<port id="2" precision="FP32" names="3011">
					<dim>1</dim>
					<dim>960</dim>
					<dim>23</dim>
					<dim>31</dim>
				</port>
			</output>
		</layer>
		<layer id="263" name="586" type="Clamp" version="opset1">
			<data min="0" max="6"/>
			<rt_info>
				<attribute name="fused_names" version="0" value="586, Maximum_4641"/>
			</rt_info>
			<input>
				<port id="0" precision="FP32">
					<dim>1</dim>
					<dim>960</dim>
					<dim>23</dim>
					<dim>31</dim>
				</port>
			</input>
			<output>
				<port id="1" precision="FP32" names="586">
					<dim>1</dim>
					<dim>960</dim>
					<dim>23</dim>
					<dim>31</dim>
				</port>
			</output>
		</layer>
		<layer id="264" name="3015" type="Const" version="opset1">
			<data element_type="f32" shape="320, 960, 1, 1" offset="5991216" size="1228800"/>
			<rt_info>
				<attribute name="fused_names" version="0" value="3015"/>
			</rt_info>
			<output>
				<port id="0" precision="FP32" names="3015">
					<dim>320</dim>
					<dim>960</dim>
					<dim>1</dim>
					<dim>1</dim>
				</port>
			</output>
		</layer>
		<layer id="265" name="Convolution_4643" type="Convolution" version="opset1">
			<data strides="1, 1" dilations="1, 1" pads_begin="0, 0" pads_end="0, 0" auto_pad="explicit"/>
			<rt_info>
				<attribute name="fused_names" version="0" value="Convolution_4643"/>
			</rt_info>
			<input>
				<port id="0" precision="FP32">
					<dim>1</dim>
					<dim>960</dim>
					<dim>23</dim>
					<dim>31</dim>
				</port>
				<port id="1" precision="FP32">
					<dim>320</dim>
					<dim>960</dim>
					<dim>1</dim>
					<dim>1</dim>
				</port>
			</input>
			<output>
				<port id="2" precision="FP32">
					<dim>1</dim>
					<dim>320</dim>
					<dim>23</dim>
					<dim>31</dim>
				</port>
			</output>
		</layer>
		<layer id="266" name="Reshape_4663" type="Const" version="opset1">
			<data element_type="f32" shape="1, 320, 1, 1" offset="7220016" size="1280"/>
			<output>
				<port id="0" precision="FP32">
					<dim>1</dim>
					<dim>320</dim>
					<dim>1</dim>
					<dim>1</dim>
				</port>
			</output>
		</layer>
		<layer id="267" name="3014" type="Add" version="opset1">
			<data auto_broadcast="numpy"/>
			<rt_info>
				<attribute name="fused_names" version="0" value="3014, Concat_4662, Reshape_4663"/>
			</rt_info>
			<input>
				<port id="0" precision="FP32">
					<dim>1</dim>
					<dim>320</dim>
					<dim>23</dim>
					<dim>31</dim>
				</port>
				<port id="1" precision="FP32">
					<dim>1</dim>
					<dim>320</dim>
					<dim>1</dim>
					<dim>1</dim>
				</port>
			</input>
			<output>
				<port id="2" precision="FP32" names="3014">
					<dim>1</dim>
					<dim>320</dim>
					<dim>23</dim>
					<dim>31</dim>
				</port>
			</output>
		</layer>
		<layer id="268" name="neck.lateral_convs.2.conv.weight" type="Const" version="opset1">
			<data element_type="f32" shape="64, 320, 1, 1" offset="7221296" size="81920"/>
			<rt_info>
				<attribute name="fused_names" version="0" value="neck.lateral_convs.2.conv.weight"/>
			</rt_info>
			<output>
				<port id="0" precision="FP32" names="neck.lateral_convs.2.conv.weight">
					<dim>64</dim>
					<dim>320</dim>
					<dim>1</dim>
					<dim>1</dim>
				</port>
			</output>
		</layer>
		<layer id="269" name="Convolution_4787" type="Convolution" version="opset1">
			<data strides="1, 1" dilations="1, 1" pads_begin="0, 0" pads_end="0, 0" auto_pad="explicit"/>
			<rt_info>
				<attribute name="fused_names" version="0" value="Convolution_4787"/>
			</rt_info>
			<input>
				<port id="0" precision="FP32">
					<dim>1</dim>
					<dim>320</dim>
					<dim>23</dim>
					<dim>31</dim>
				</port>
				<port id="1" precision="FP32">
					<dim>64</dim>
					<dim>320</dim>
					<dim>1</dim>
					<dim>1</dim>
				</port>
			</input>
			<output>
				<port id="2" precision="FP32">
					<dim>1</dim>
					<dim>64</dim>
					<dim>23</dim>
					<dim>31</dim>
				</port>
			</output>
		</layer>
		<layer id="270" name="Reshape_4807" type="Const" version="opset1">
			<data element_type="f32" shape="1, 64, 1, 1" offset="7303216" size="256"/>
			<output>
				<port id="0" precision="FP32">
					<dim>1</dim>
					<dim>64</dim>
					<dim>1</dim>
					<dim>1</dim>
				</port>
			</output>
		</layer>
		<layer id="271" name="591" type="Add" version="opset1">
			<data auto_broadcast="numpy"/>
			<rt_info>
				<attribute name="fused_names" version="0" value="591, Concat_4806, Reshape_4807"/>
			</rt_info>
			<input>
				<port id="0" precision="FP32">
					<dim>1</dim>
					<dim>64</dim>
					<dim>23</dim>
					<dim>31</dim>
				</port>
				<port id="1" precision="FP32">
					<dim>1</dim>
					<dim>64</dim>
					<dim>1</dim>
					<dim>1</dim>
				</port>
			</input>
			<output>
				<port id="2" precision="FP32" names="591">
					<dim>1</dim>
					<dim>64</dim>
					<dim>23</dim>
					<dim>31</dim>
				</port>
			</output>
		</layer>
		<layer id="272" name="601" type="ShapeOf" version="opset3">
			<data output_type="i64"/>
			<rt_info>
				<attribute name="fused_names" version="0" value="601, ShapeOf_4868"/>
			</rt_info>
			<input>
				<port id="0" precision="FP32">
					<dim>1</dim>
					<dim>64</dim>
					<dim>23</dim>
					<dim>31</dim>
				</port>
			</input>
			<output>
				<port id="1" precision="I64" names="601">
					<dim>4</dim>
				</port>
			</output>
		</layer>
		<layer id="273" name="603" type="Const" version="opset1">
			<data element_type="i64" shape="1" offset="16" size="8"/>
			<rt_info>
				<attribute name="fused_names" version="0" value="602, 603, 604, 605, Broadcast_4849, ShapeOf_4848"/>
			</rt_info>
			<output>
				<port id="0" precision="I64" names="603">
					<dim>1</dim>
				</port>
			</output>
		</layer>
		<layer id="274" name="604" type="Const" version="opset1">
			<data element_type="i64" shape="1" offset="7303472" size="8"/>
			<rt_info>
				<attribute name="fused_names" version="0" value="602, 603, 604, 605, Broadcast_4849, ShapeOf_4848"/>
			</rt_info>
			<output>
				<port id="0" precision="I64" names="604">
					<dim>1</dim>
				</port>
			</output>
		</layer>
		<layer id="275" name="Broadcast_4849" type="Const" version="opset1">
			<data element_type="i64" shape="1" offset="7303480" size="8"/>
			<rt_info>
				<attribute name="fused_names" version="0" value="602, 603, 604, 605, Broadcast_4849, ShapeOf_4848"/>
			</rt_info>
			<output>
				<port id="0" precision="I64">
					<dim>1</dim>
				</port>
			</output>
		</layer>
		<layer id="276" name="605" type="StridedSlice" version="opset1">
			<data begin_mask="0" end_mask="0" new_axis_mask="" shrink_axis_mask="" ellipsis_mask=""/>
			<rt_info>
				<attribute name="fused_names" version="0" value="602, 603, 604, 605, Broadcast_4849, ShapeOf_4848"/>
			</rt_info>
			<input>
				<port id="0" precision="I64">
					<dim>4</dim>
				</port>
				<port id="1" precision="I64">
					<dim>1</dim>
				</port>
				<port id="2" precision="I64">
					<dim>1</dim>
				</port>
				<port id="3" precision="I64">
					<dim>1</dim>
				</port>
			</input>
			<output>
				<port id="4" precision="I64" names="605">
					<dim>2</dim>
				</port>
			</output>
		</layer>
		<layer id="277" name="592" type="ShapeOf" version="opset3">
			<data output_type="i64"/>
			<rt_info>
				<attribute name="fused_names" version="0" value="592, 595"/>
			</rt_info>
			<input>
				<port id="0" precision="FP32">
					<dim>1</dim>
					<dim>64</dim>
					<dim>46</dim>
					<dim>62</dim>
				</port>
			</input>
			<output>
				<port id="1" precision="I64" names="592,595">
					<dim>4</dim>
				</port>
			</output>
		</layer>
		<layer id="278" name="Constant_36748" type="Const" version="opset1">
			<data element_type="i64" shape="2" offset="7303488" size="16"/>
			<rt_info>
				<attribute name="fused_names" version="0" value="600"/>
			</rt_info>
			<output>
				<port id="0" precision="I64">
					<dim>2</dim>
				</port>
			</output>
		</layer>
		<layer id="279" name="Constant_36749" type="Const" version="opset1">
			<data element_type="i64" shape="" offset="16" size="8"/>
			<output>
				<port id="0" precision="I64"/>
			</output>
		</layer>
		<layer id="280" name="Gather_36750" type="Gather" version="opset8">
			<data batch_dims="0"/>
			<rt_info>
				<attribute name="fused_names" version="0" value="600, 606"/>
			</rt_info>
			<input>
				<port id="0" precision="I64">
					<dim>4</dim>
				</port>
				<port id="1" precision="I64">
					<dim>2</dim>
				</port>
				<port id="2" precision="I64"/>
			</input>
			<output>
				<port id="3" precision="I64" names="600,606">
					<dim>2</dim>
				</port>
			</output>
		</layer>
		<layer id="281" name="607" type="Concat" version="opset1">
			<data axis="0"/>
			<rt_info>
				<attribute name="fused_names" version="0" value="607"/>
			</rt_info>
			<input>
				<port id="0" precision="I64">
					<dim>2</dim>
				</port>
				<port id="1" precision="I64">
					<dim>2</dim>
				</port>
			</input>
			<output>
				<port id="2" precision="I64" names="607">
					<dim>4</dim>
				</port>
			</output>
		</layer>
		<layer id="282" name="Convert_4870" type="Convert" version="opset1">
			<data destination_type="f32"/>
			<rt_info>
				<attribute name="fused_names" version="0" value="Convert_4870"/>
			</rt_info>
			<input>
				<port id="0" precision="I64">
					<dim>4</dim>
				</port>
			</input>
			<output>
				<port id="1" precision="FP32">
					<dim>4</dim>
				</port>
			</output>
		</layer>
		<layer id="283" name="Convert_4869" type="Convert" version="opset1">
			<data destination_type="f32"/>
			<rt_info>
				<attribute name="fused_names" version="0" value="Convert_4869"/>
			</rt_info>
			<input>
				<port id="0" precision="I64">
					<dim>4</dim>
				</port>
			</input>
			<output>
				<port id="1" precision="FP32">
					<dim>4</dim>
				</port>
			</output>
		</layer>
		<layer id="284" name="Divide_4871" type="Divide" version="opset1">
			<data auto_broadcast="numpy" m_pythondiv="true"/>
			<rt_info>
				<attribute name="fused_names" version="0" value="Divide_4871"/>
			</rt_info>
			<input>
				<port id="0" precision="FP32">
					<dim>4</dim>
				</port>
				<port id="1" precision="FP32">
					<dim>4</dim>
				</port>
			</input>
			<output>
				<port id="2" precision="FP32">
					<dim>4</dim>
				</port>
			</output>
		</layer>
		<layer id="285" name="Constant_48745" type="Const" version="opset1">
			<data element_type="f32" shape="1" offset="7303504" size="4"/>
			<output>
				<port id="0" precision="FP32">
					<dim>1</dim>
				</port>
			</output>
		</layer>
		<layer id="286" name="Add_4873" type="Add" version="opset1">
			<data auto_broadcast="numpy"/>
			<rt_info>
				<attribute name="fused_names" version="0" value="Add_4873"/>
			</rt_info>
			<input>
				<port id="0" precision="FP32">
					<dim>4</dim>
				</port>
				<port id="1" precision="FP32">
					<dim>1</dim>
				</port>
			</input>
			<output>
				<port id="2" precision="FP32">
					<dim>4</dim>
				</port>
			</output>
		</layer>
		<layer id="287" name="610" type="Interpolate" version="opset4">
			<data mode="nearest" shape_calculation_mode="sizes" coordinate_transformation_mode="asymmetric" nearest_mode="floor" antialias="false" pads_begin="0, 0, 0, 0" pads_end="0, 0, 0, 0" cube_coeff="-0.75"/>
			<rt_info>
				<attribute name="fused_names" version="0" value="610"/>
			</rt_info>
			<input>
				<port id="0" precision="FP32">
					<dim>1</dim>
					<dim>64</dim>
					<dim>23</dim>
					<dim>31</dim>
				</port>
				<port id="1" precision="I64">
					<dim>4</dim>
				</port>
				<port id="2" precision="FP32">
					<dim>4</dim>
				</port>
			</input>
			<output>
				<port id="3" precision="FP32" names="610">
					<dim>1</dim>
					<dim>64</dim>
					<dim>46</dim>
					<dim>62</dim>
				</port>
			</output>
		</layer>
		<layer id="288" name="611" type="Add" version="opset1">
			<data auto_broadcast="numpy"/>
			<rt_info>
				<attribute name="fused_names" version="0" value="611"/>
			</rt_info>
			<input>
				<port id="0" precision="FP32">
					<dim>1</dim>
					<dim>64</dim>
					<dim>46</dim>
					<dim>62</dim>
				</port>
				<port id="1" precision="FP32">
					<dim>1</dim>
					<dim>64</dim>
					<dim>46</dim>
					<dim>62</dim>
				</port>
			</input>
			<output>
				<port id="2" precision="FP32" names="611">
					<dim>1</dim>
					<dim>64</dim>
					<dim>46</dim>
					<dim>62</dim>
				</port>
			</output>
		</layer>
		<layer id="289" name="621" type="ShapeOf" version="opset3">
			<data output_type="i64"/>
			<rt_info>
				<attribute name="fused_names" version="0" value="621, ShapeOf_4984"/>
			</rt_info>
			<input>
				<port id="0" precision="FP32">
					<dim>1</dim>
					<dim>64</dim>
					<dim>46</dim>
					<dim>62</dim>
				</port>
			</input>
			<output>
				<port id="1" precision="I64" names="621">
					<dim>4</dim>
				</port>
			</output>
		</layer>
		<layer id="290" name="623" type="Const" version="opset1">
			<data element_type="i64" shape="1" offset="16" size="8"/>
			<rt_info>
				<attribute name="fused_names" version="0" value="622, 623, 624, 625, Broadcast_4965, ShapeOf_4964"/>
			</rt_info>
			<output>
				<port id="0" precision="I64" names="623">
					<dim>1</dim>
				</port>
			</output>
		</layer>
		<layer id="291" name="624" type="Const" version="opset1">
			<data element_type="i64" shape="1" offset="7303472" size="8"/>
			<rt_info>
				<attribute name="fused_names" version="0" value="622, 623, 624, 625, Broadcast_4965, ShapeOf_4964"/>
			</rt_info>
			<output>
				<port id="0" precision="I64" names="624">
					<dim>1</dim>
				</port>
			</output>
		</layer>
		<layer id="292" name="Broadcast_4965" type="Const" version="opset1">
			<data element_type="i64" shape="1" offset="7303480" size="8"/>
			<rt_info>
				<attribute name="fused_names" version="0" value="622, 623, 624, 625, Broadcast_4965, ShapeOf_4964"/>
			</rt_info>
			<output>
				<port id="0" precision="I64">
					<dim>1</dim>
				</port>
			</output>
		</layer>
		<layer id="293" name="625" type="StridedSlice" version="opset1">
			<data begin_mask="0" end_mask="0" new_axis_mask="" shrink_axis_mask="" ellipsis_mask=""/>
			<rt_info>
				<attribute name="fused_names" version="0" value="622, 623, 624, 625, Broadcast_4965, ShapeOf_4964"/>
			</rt_info>
			<input>
				<port id="0" precision="I64">
					<dim>4</dim>
				</port>
				<port id="1" precision="I64">
					<dim>1</dim>
				</port>
				<port id="2" precision="I64">
					<dim>1</dim>
				</port>
				<port id="3" precision="I64">
					<dim>1</dim>
				</port>
			</input>
			<output>
				<port id="4" precision="I64" names="625">
					<dim>2</dim>
				</port>
			</output>
		</layer>
		<layer id="294" name="612" type="ShapeOf" version="opset3">
			<data output_type="i64"/>
			<rt_info>
				<attribute name="fused_names" version="0" value="612, 615"/>
			</rt_info>
			<input>
				<port id="0" precision="FP32">
					<dim>1</dim>
					<dim>64</dim>
					<dim>92</dim>
					<dim>124</dim>
				</port>
			</input>
			<output>
				<port id="1" precision="I64" names="612,615">
					<dim>4</dim>
				</port>
			</output>
		</layer>
		<layer id="295" name="Constant_36752" type="Const" version="opset1">
…
		<edge from-layer="1960" from-port="2" to-layer="1962" to-port="0"/>
		<edge from-layer="1961" from-port="0" to-layer="1962" to-port="1"/>
		<edge from-layer="1962" from-port="2" to-layer="1964" to-port="0"/>
		<edge from-layer="1963" from-port="0" to-layer="1964" to-port="1"/>
		<edge from-layer="1964" from-port="2" to-layer="2025" to-port="1"/>
		<edge from-layer="1965" from-port="0" to-layer="1966" to-port="1"/>
		<edge from-layer="1966" from-port="2" to-layer="1967" to-port="1"/>
		<edge from-layer="1967" from-port="2" to-layer="1971" to-port="0"/>
		<edge from-layer="1967" from-port="2" to-layer="1969" to-port="0"/>
		<edge from-layer="1968" from-port="0" to-layer="1969" to-port="1"/>
		<edge from-layer="1969" from-port="2" to-layer="1975" to-port="0"/>
		<edge from-layer="1970" from-port="0" to-layer="1972" to-port="0"/>
		<edge from-layer="1971" from-port="1" to-layer="1972" to-port="1"/>
		<edge from-layer="1972" from-port="2" to-layer="1974" to-port="0"/>
		<edge from-layer="1973" from-port="0" to-layer="1974" to-port="1"/>
		<edge from-layer="1974" from-port="2" to-layer="1975" to-port="1"/>
		<edge from-layer="1975" from-port="2" to-layer="1977" to-port="0"/>
		<edge from-layer="1976" from-port="0" to-layer="1977" to-port="1"/>
		<edge from-layer="1977" from-port="2" to-layer="1979" to-port="0"/>
		<edge from-layer="1977" from-port="2" to-layer="1986" to-port="0"/>
		<edge from-layer="1978" from-port="0" to-layer="1979" to-port="1"/>
		<edge from-layer="1979" from-port="2" to-layer="1990" to-port="0"/>
		<edge from-layer="1980" from-port="0" to-layer="1982" to-port="1"/>
		<edge from-layer="1981" from-port="0" to-layer="1982" to-port="2"/>
		<edge from-layer="1982" from-port="3" to-layer="1983" to-port="0"/>
		<edge from-layer="1983" from-port="1" to-layer="1985" to-port="0"/>
		<edge from-layer="1984" from-port="0" to-layer="1985" to-port="1"/>
		<edge from-layer="1985" from-port="2" to-layer="1987" to-port="0"/>
		<edge from-layer="1986" from-port="1" to-layer="1987" to-port="1"/>
		<edge from-layer="1987" from-port="2" to-layer="1989" to-port="0"/>
		<edge from-layer="1988" from-port="0" to-layer="1989" to-port="1"/>
		<edge from-layer="1989" from-port="2" to-layer="1990" to-port="1"/>
		<edge from-layer="1990" from-port="2" to-layer="1992" to-port="0"/>
		<edge from-layer="1991" from-port="0" to-layer="1992" to-port="1"/>
		<edge from-layer="1992" from-port="2" to-layer="1994" to-port="0"/>
		<edge from-layer="1993" from-port="0" to-layer="1994" to-port="1"/>
		<edge from-layer="1994" from-port="2" to-layer="2025" to-port="2"/>
		<edge from-layer="1995" from-port="0" to-layer="1996" to-port="1"/>
		<edge from-layer="1996" from-port="2" to-layer="1997" to-port="1"/>
		<edge from-layer="1997" from-port="2" to-layer="2001" to-port="0"/>
		<edge from-layer="1997" from-port="2" to-layer="1999" to-port="0"/>
		<edge from-layer="1998" from-port="0" to-layer="1999" to-port="1"/>
		<edge from-layer="1999" from-port="2" to-layer="2005" to-port="0"/>
		<edge from-layer="2000" from-port="0" to-layer="2002" to-port="0"/>
		<edge from-layer="2001" from-port="1" to-layer="2002" to-port="1"/>
		<edge from-layer="2002" from-port="2" to-layer="2004" to-port="0"/>
		<edge from-layer="2003" from-port="0" to-layer="2004" to-port="1"/>
		<edge from-layer="2004" from-port="2" to-layer="2005" to-port="1"/>
		<edge from-layer="2005" from-port="2" to-layer="2007" to-port="0"/>
		<edge from-layer="2006" from-port="0" to-layer="2007" to-port="1"/>
		<edge from-layer="2007" from-port="2" to-layer="2009" to-port="0"/>
		<edge from-layer="2007" from-port="2" to-layer="2016" to-port="0"/>
		<edge from-layer="2008" from-port="0" to-layer="2009" to-port="1"/>
		<edge from-layer="2009" from-port="2" to-layer="2020" to-port="0"/>
		<edge from-layer="2010" from-port="0" to-layer="2012" to-port="1"/>
		<edge from-layer="2011" from-port="0" to-layer="2012" to-port="2"/>
		<edge from-layer="2012" from-port="3" to-layer="2013" to-port="0"/>
		<edge from-layer="2013" from-port="1" to-layer="2015" to-port="0"/>
		<edge from-layer="2014" from-port="0" to-layer="2015" to-port="1"/>
		<edge from-layer="2015" from-port="2" to-layer="2017" to-port="0"/>
		<edge from-layer="2016" from-port="1" to-layer="2017" to-port="1"/>
		<edge from-layer="2017" from-port="2" to-layer="2019" to-port="0"/>
		<edge from-layer="2018" from-port="0" to-layer="2019" to-port="1"/>
		<edge from-layer="2019" from-port="2" to-layer="2020" to-port="1"/>
		<edge from-layer="2020" from-port="2" to-layer="2022" to-port="0"/>
		<edge from-layer="2021" from-port="0" to-layer="2022" to-port="1"/>
		<edge from-layer="2022" from-port="2" to-layer="2024" to-port="0"/>
		<edge from-layer="2023" from-port="0" to-layer="2024" to-port="1"/>
		<edge from-layer="2024" from-port="2" to-layer="2025" to-port="3"/>
		<edge from-layer="2025" from-port="4" to-layer="2026" to-port="0"/>
		<edge from-layer="2026" from-port="2" to-layer="2455" to-port="3"/>
		<edge from-layer="2027" from-port="0" to-layer="2127" to-port="0"/>
		<edge from-layer="2028" from-port="0" to-layer="2090" to-port="0"/>
		<edge from-layer="2029" from-port="1" to-layer="2031" to-port="0"/>
		<edge from-layer="2030" from-port="0" to-layer="2031" to-port="1"/>
		<edge from-layer="2031" from-port="2" to-layer="2033" to-port="0"/>
		<edge from-layer="2032" from-port="0" to-layer="2033" to-port="1"/>
		<edge from-layer="2033" from-port="2" to-layer="2138" to-port="0"/>
		<edge from-layer="2033" from-port="2" to-layer="2034" to-port="0"/>
		<edge from-layer="2034" from-port="2" to-layer="2039" to-port="0"/>
		<edge from-layer="2034" from-port="2" to-layer="2036" to-port="0"/>
		<edge from-layer="2035" from-port="0" to-layer="2036" to-port="1"/>
		<edge from-layer="2036" from-port="2" to-layer="2038" to-port="0"/>
		<edge from-layer="2037" from-port="0" to-layer="2038" to-port="1"/>
		<edge from-layer="2038" from-port="2" to-layer="2040" to-port="0"/>
		<edge from-layer="2039" from-port="1" to-layer="2040" to-port="1"/>
		<edge from-layer="2040" from-port="2" to-layer="2042" to-port="0"/>
		<edge from-layer="2041" from-port="0" to-layer="2042" to-port="1"/>
		<edge from-layer="2042" from-port="2" to-layer="2044" to-port="0"/>
		<edge from-layer="2043" from-port="0" to-layer="2044" to-port="1"/>
		<edge from-layer="2044" from-port="2" to-layer="2045" to-port="0"/>
		<edge from-layer="2045" from-port="1" to-layer="2046" to-port="0"/>
		<edge from-layer="2046" from-port="2" to-layer="2051" to-port="0"/>
		<edge from-layer="2046" from-port="2" to-layer="2048" to-port="0"/>
		<edge from-layer="2047" from-port="0" to-layer="2048" to-port="1"/>
		<edge from-layer="2048" from-port="2" to-layer="2050" to-port="0"/>
		<edge from-layer="2049" from-port="0" to-layer="2050" to-port="1"/>
		<edge from-layer="2050" from-port="2" to-layer="2052" to-port="0"/>
		<edge from-layer="2051" from-port="1" to-layer="2052" to-port="1"/>
		<edge from-layer="2052" from-port="2" to-layer="2054" to-port="0"/>
		<edge from-layer="2053" from-port="0" to-layer="2054" to-port="1"/>
		<edge from-layer="2054" from-port="2" to-layer="2056" to-port="0"/>
		<edge from-layer="2055" from-port="0" to-layer="2056" to-port="1"/>
		<edge from-layer="2056" from-port="2" to-layer="2057" to-port="0"/>
		<edge from-layer="2057" from-port="1" to-layer="2058" to-port="0"/>
		<edge from-layer="2058" from-port="2" to-layer="2063" to-port="0"/>
		<edge from-layer="2058" from-port="2" to-layer="2060" to-port="0"/>
		<edge from-layer="2059" from-port="0" to-layer="2060" to-port="1"/>
		<edge from-layer="2060" from-port="2" to-layer="2062" to-port="0"/>
		<edge from-layer="2061" from-port="0" to-layer="2062" to-port="1"/>
		<edge from-layer="2062" from-port="2" to-layer="2064" to-port="0"/>
		<edge from-layer="2063" from-port="1" to-layer="2064" to-port="1"/>
		<edge from-layer="2064" from-port="2" to-layer="2066" to-port="0"/>
		<edge from-layer="2065" from-port="0" to-layer="2066" to-port="1"/>
		<edge from-layer="2066" from-port="2" to-layer="2068" to-port="0"/>
		<edge from-layer="2067" from-port="0" to-layer="2068" to-port="1"/>
		<edge from-layer="2068" from-port="2" to-layer="2069" to-port="0"/>
		<edge from-layer="2069" from-port="1" to-layer="2070" to-port="0"/>
		<edge from-layer="2070" from-port="2" to-layer="2072" to-port="0"/>
		<edge from-layer="2070" from-port="2" to-layer="2075" to-port="0"/>
		<edge from-layer="2071" from-port="0" to-layer="2072" to-port="1"/>
		<edge from-layer="2072" from-port="2" to-layer="2074" to-port="0"/>
		<edge from-layer="2073" from-port="0" to-layer="2074" to-port="1"/>
		<edge from-layer="2074" from-port="2" to-layer="2076" to-port="0"/>
		<edge from-layer="2075" from-port="1" to-layer="2076" to-port="1"/>
		<edge from-layer="2076" from-port="2" to-layer="2078" to-port="0"/>
		<edge from-layer="2077" from-port="0" to-layer="2078" to-port="1"/>
		<edge from-layer="2078" from-port="2" to-layer="2080" to-port="0"/>
		<edge from-layer="2079" from-port="0" to-layer="2080" to-port="1"/>
		<edge from-layer="2080" from-port="2" to-layer="2081" to-port="0"/>
		<edge from-layer="2081" from-port="1" to-layer="2082" to-port="0"/>
		<edge from-layer="2082" from-port="2" to-layer="2084" to-port="0"/>
		<edge from-layer="2083" from-port="0" to-layer="2084" to-port="1"/>
		<edge from-layer="2084" from-port="2" to-layer="2132" to-port="0"/>
		<edge from-layer="2084" from-port="2" to-layer="2085" to-port="0"/>
		<edge from-layer="2085" from-port="1" to-layer="2098" to-port="0"/>
		<edge from-layer="2085" from-port="1" to-layer="2088" to-port="0"/>
		<edge from-layer="2086" from-port="0" to-layer="2088" to-port="1"/>
		<edge from-layer="2087" from-port="0" to-layer="2088" to-port="2"/>
		<edge from-layer="2088" from-port="3" to-layer="2090" to-port="1"/>
		<edge from-layer="2089" from-port="0" to-layer="2090" to-port="2"/>
		<edge from-layer="2090" from-port="3" to-layer="2092" to-port="0"/>
		<edge from-layer="2091" from-port="0" to-layer="2092" to-port="1"/>
		<edge from-layer="2092" from-port="2" to-layer="2112" to-port="0"/>
		<edge from-layer="2092" from-port="2" to-layer="2094" to-port="0"/>
		<edge from-layer="2093" from-port="0" to-layer="2094" to-port="1"/>
		<edge from-layer="2094" from-port="2" to-layer="2104" to-port="0"/>
		<edge from-layer="2095" from-port="0" to-layer="2100" to-port="0"/>
		<edge from-layer="2096" from-port="0" to-layer="2098" to-port="1"/>
		<edge from-layer="2097" from-port="0" to-layer="2098" to-port="2"/>
		<edge from-layer="2098" from-port="3" to-layer="2100" to-port="1"/>
		<edge from-layer="2099" from-port="0" to-layer="2100" to-port="2"/>
		<edge from-layer="2100" from-port="3" to-layer="2102" to-port="0"/>
		<edge from-layer="2101" from-port="0" to-layer="2102" to-port="1"/>
		<edge from-layer="2102" from-port="2" to-layer="2103" to-port="0"/>
		<edge from-layer="2102" from-port="2" to-layer="2108" to-port="0"/>
		<edge from-layer="2103" from-port="1" to-layer="2104" to-port="1"/>
		<edge from-layer="2104" from-port="2" to-layer="2120" to-port="0"/>
		<edge from-layer="2104" from-port="2" to-layer="2106" to-port="0"/>
		<edge from-layer="2105" from-port="0" to-layer="2106" to-port="1"/>
		<edge from-layer="2106" from-port="2" to-layer="2123" to-port="0"/>
		<edge from-layer="2107" from-port="0" to-layer="2108" to-port="1"/>
		<edge from-layer="2108" from-port="2" to-layer="2110" to-port="0"/>
		<edge from-layer="2109" from-port="0" to-layer="2110" to-port="1"/>
		<edge from-layer="2110" from-port="2" to-layer="2114" to-port="0"/>
		<edge from-layer="2111" from-port="0" to-layer="2113" to-port="0"/>
		<edge from-layer="2112" from-port="1" to-layer="2113" to-port="1"/>
		<edge from-layer="2113" from-port="2" to-layer="2114" to-port="1"/>
		<edge from-layer="2114" from-port="2" to-layer="2116" to-port="0"/>
		<edge from-layer="2115" from-port="0" to-layer="2116" to-port="1"/>
		<edge from-layer="2116" from-port="2" to-layer="2118" to-port="0"/>
		<edge from-layer="2116" from-port="2" to-layer="2122" to-port="0"/>
		<edge from-layer="2117" from-port="0" to-layer="2118" to-port="1"/>
		<edge from-layer="2118" from-port="2" to-layer="2123" to-port="1"/>
		<edge from-layer="2119" from-port="0" to-layer="2120" to-port="1"/>
		<edge from-layer="2120" from-port="2" to-layer="2123" to-port="2"/>
		<edge from-layer="2121" from-port="0" to-layer="2122" to-port="1"/>
		<edge from-layer="2122" from-port="2" to-layer="2123" to-port="3"/>
		<edge from-layer="2123" from-port="4" to-layer="2124" to-port="0"/>
		<edge from-layer="2124" from-port="1" to-layer="2126" to-port="0"/>
		<edge from-layer="2125" from-port="0" to-layer="2126" to-port="1"/>
		<edge from-layer="2126" from-port="2" to-layer="2127" to-port="1"/>
		<edge from-layer="2127" from-port="2" to-layer="2129" to-port="0"/>
		<edge from-layer="2128" from-port="0" to-layer="2129" to-port="1"/>
		<edge from-layer="2129" from-port="2" to-layer="2220" to-port="0"/>
		<edge from-layer="2130" from-port="0" to-layer="2132" to-port="1"/>
		<edge from-layer="2131" from-port="0" to-layer="2132" to-port="2"/>
		<edge from-layer="2132" from-port="3" to-layer="2134" to-port="0"/>
		<edge from-layer="2133" from-port="0" to-layer="2134" to-port="1"/>
		<edge from-layer="2134" from-port="2" to-layer="2136" to-port="0"/>
		<edge from-layer="2135" from-port="0" to-layer="2136" to-port="1"/>
		<edge from-layer="2136" from-port="2" to-layer="2137" to-port="0"/>
		<edge from-layer="2137" from-port="1" to-layer="2467" to-port="0"/>
		<edge from-layer="2137" from-port="1" to-layer="2202" to-port="0"/>
		<edge from-layer="2138" from-port="2" to-layer="2140" to-port="0"/>
		<edge from-layer="2138" from-port="2" to-layer="2143" to-port="0"/>
		<edge from-layer="2139" from-port="0" to-layer="2140" to-port="1"/>
		<edge from-layer="2140" from-port="2" to-layer="2142" to-port="0"/>
		<edge from-layer="2141" from-port="0" to-layer="2142" to-port="1"/>
		<edge from-layer="2142" from-port="2" to-layer="2144" to-port="0"/>
		<edge from-layer="2143" from-port="1" to-layer="2144" to-port="1"/>
		<edge from-layer="2144" from-port="2" to-layer="2146" to-port="0"/>
		<edge from-layer="2145" from-port="0" to-layer="2146" to-port="1"/>
		<edge from-layer="2146" from-port="2" to-layer="2148" to-port="0"/>
		<edge from-layer="2147" from-port="0" to-layer="2148" to-port="1"/>
		<edge from-layer="2148" from-port="2" to-layer="2149" to-port="0"/>
		<edge from-layer="2149" from-port="1" to-layer="2150" to-port="0"/>
		<edge from-layer="2150" from-port="2" to-layer="2152" to-port="0"/>
		<edge from-layer="2150" from-port="2" to-layer="2155" to-port="0"/>
		<edge from-layer="2151" from-port="0" to-layer="2152" to-port="1"/>
		<edge from-layer="2152" from-port="2" to-layer="2154" to-port="0"/>
		<edge from-layer="2153" from-port="0" to-layer="2154" to-port="1"/>
		<edge from-layer="2154" from-port="2" to-layer="2156" to-port="0"/>
		<edge from-layer="2155" from-port="1" to-layer="2156" to-port="1"/>
		<edge from-layer="2156" from-port="2" to-layer="2158" to-port="0"/>
		<edge from-layer="2157" from-port="0" to-layer="2158" to-port="1"/>
		<edge from-layer="2158" from-port="2" to-layer="2160" to-port="0"/>
		<edge from-layer="2159" from-port="0" to-layer="2160" to-port="1"/>
		<edge from-layer="2160" from-port="2" to-layer="2161" to-port="0"/>
		<edge from-layer="2161" from-port="1" to-layer="2162" to-port="0"/>
		<edge from-layer="2162" from-port="2" to-layer="2164" to-port="0"/>
		<edge from-layer="2162" from-port="2" to-layer="2167" to-port="0"/>
		<edge from-layer="2163" from-port="0" to-layer="2164" to-port="1"/>
		<edge from-layer="2164" from-port="2" to-layer="2166" to-port="0"/>
		<edge from-layer="2165" from-port="0" to-layer="2166" to-port="1"/>
		<edge from-layer="2166" from-port="2" to-layer="2168" to-port="0"/>
		<edge from-layer="2167" from-port="1" to-layer="2168" to-port="1"/>
		<edge from-layer="2168" from-port="2" to-layer="2170" to-port="0"/>
		<edge from-layer="2169" from-port="0" to-layer="2170" to-port="1"/>
		<edge from-layer="2170" from-port="2" to-layer="2172" to-port="0"/>
		<edge from-layer="2171" from-port="0" to-layer="2172" to-port="1"/>
		<edge from-layer="2172" from-port="2" to-layer="2173" to-port="0"/>
		<edge from-layer="2173" from-port="1" to-layer="2174" to-port="0"/>
		<edge from-layer="2174" from-port="2" to-layer="2179" to-port="0"/>
		<edge from-layer="2174" from-port="2" to-layer="2176" to-port="0"/>
		<edge from-layer="2175" from-port="0" to-layer="2176" to-port="1"/>
		<edge from-layer="2176" from-port="2" to-layer="2178" to-port="0"/>
		<edge from-layer="2177" from-port="0" to-layer="2178" to-port="1"/>
		<edge from-layer="2178" from-port="2" to-layer="2180" to-port="0"/>
		<edge from-layer="2179" from-port="1" to-layer="2180" to-port="1"/>
		<edge from-layer="2180" from-port="2" to-layer="2182" to-port="0"/>
		<edge from-layer="2181" from-port="0" to-layer="2182" to-port="1"/>
		<edge from-layer="2182" from-port="2" to-layer="2184" to-port="0"/>
		<edge from-layer="2183" from-port="0" to-layer="2184" to-port="1"/>
		<edge from-layer="2184" from-port="2" to-layer="2185" to-port="0"/>
		<edge from-layer="2185" from-port="1" to-layer="2233" to-port="0"/>
		<edge from-layer="2185" from-port="1" to-layer="2186" to-port="0"/>
		<edge from-layer="2186" from-port="2" to-layer="2188" to-port="0"/>
		<edge from-layer="2187" from-port="0" to-layer="2188" to-port="1"/>
		<edge from-layer="2188" from-port="2" to-layer="2191" to-port="0"/>
		<edge from-layer="2189" from-port="0" to-layer="2191" to-port="1"/>
		<edge from-layer="2190" from-port="0" to-layer="2191" to-port="2"/>
		<edge from-layer="2191" from-port="3" to-layer="2196" to-port="0"/>
		<edge from-layer="2191" from-port="3" to-layer="2192" to-port="0"/>
		<edge from-layer="2192" from-port="1" to-layer="2195" to-port="0"/>
		<edge from-layer="2193" from-port="0" to-layer="2195" to-port="1"/>
		<edge from-layer="2194" from-port="0" to-layer="2195" to-port="2"/>
		<edge from-layer="2195" from-port="3" to-layer="2196" to-port="1"/>
		<edge from-layer="2196" from-port="2" to-layer="2198" to-port="0"/>
		<edge from-layer="2197" from-port="0" to-layer="2198" to-port="1"/>
		<edge from-layer="2198" from-port="2" to-layer="2199" to-port="0"/>
		<edge from-layer="2199" from-port="1" to-layer="2201" to-port="0"/>
		<edge from-layer="2199" from-port="1" to-layer="2478" to-port="0"/>
		<edge from-layer="2200" from-port="0" to-layer="2201" to-port="1"/>
		<edge from-layer="2201" from-port="2" to-layer="2202" to-port="1"/>
		<edge from-layer="2202" from-port="2" to-layer="2204" to-port="0"/>
		<edge from-layer="2203" from-port="0" to-layer="2204" to-port="1"/>
		<edge from-layer="2204" from-port="2" to-layer="2206" to-port="0"/>
		<edge from-layer="2204" from-port="2" to-layer="2218" to-port="0"/>
		<edge from-layer="2205" from-port="0" to-layer="2207" to-port="0"/>
		<edge from-layer="2206" from-port="1" to-layer="2207" to-port="1"/>
		<edge from-layer="2207" from-port="2" to-layer="2208" to-port="0"/>
		<edge from-layer="2208" from-port="1" to-layer="2210" to-port="0"/>
		<edge from-layer="2209" from-port="0" to-layer="2210" to-port="1"/>
		<edge from-layer="2210" from-port="2" to-layer="2211" to-port="0"/>
		<edge from-layer="2211" from-port="1" to-layer="2213" to-port="0"/>
		<edge from-layer="2212" from-port="0" to-layer="2213" to-port="1"/>
		<edge from-layer="2213" from-port="2" to-layer="2215" to-port="0"/>
		<edge from-layer="2214" from-port="0" to-layer="2215" to-port="1"/>
		<edge from-layer="2215" from-port="2" to-layer="2217" to-port="0"/>
		<edge from-layer="2216" from-port="0" to-layer="2217" to-port="1"/>
		<edge from-layer="2217" from-port="2" to-layer="2218" to-port="1"/>
		<edge from-layer="2218" from-port="3" to-layer="2244" to-port="1"/>
		<edge from-layer="2218" from-port="3" to-layer="2478" to-port="1"/>
		<edge from-layer="2218" from-port="3" to-layer="2467" to-port="1"/>
		<edge from-layer="2218" from-port="3" to-layer="2220" to-port="1"/>
		<edge from-layer="2219" from-port="0" to-layer="2220" to-port="2"/>
		<edge from-layer="2220" from-port="3" to-layer="2226" to-port="0"/>
		<edge from-layer="2220" from-port="3" to-layer="2328" to-port="0"/>
		<edge from-layer="2220" from-port="3" to-layer="2331" to-port="0"/>
		<edge from-layer="2220" from-port="3" to-layer="2348" to-port="0"/>
		<edge from-layer="2220" from-port="3" to-layer="2345" to-port="0"/>
		<edge from-layer="2220" from-port="3" to-layer="2281" to-port="0"/>
		<edge from-layer="2220" from-port="3" to-layer="2278" to-port="0"/>
		<edge from-layer="2220" from-port="3" to-layer="2223" to-port="0"/>
		<edge from-layer="2221" from-port="0" to-layer="2223" to-port="1"/>
		<edge from-layer="2222" from-port="0" to-layer="2223" to-port="2"/>
		<edge from-layer="2223" from-port="3" to-layer="2227" to-port="0"/>
		<edge from-layer="2224" from-port="0" to-layer="2226" to-port="1"/>
		<edge from-layer="2225" from-port="0" to-layer="2226" to-port="2"/>
		<edge from-layer="2226" from-port="3" to-layer="2227" to-port="1"/>
		<edge from-layer="2227" from-port="2" to-layer="2229" to-port="0"/>
		<edge from-layer="2228" from-port="0" to-layer="2229" to-port="1"/>
		<edge from-layer="2229" from-port="2" to-layer="2231" to-port="0"/>
		<edge from-layer="2230" from-port="0" to-layer="2231" to-port="1"/>
		<edge from-layer="2231" from-port="2" to-layer="2275" to-port="0"/>
		<edge from-layer="2232" from-port="0" to-layer="2233" to-port="1"/>
		<edge from-layer="2233" from-port="2" to-layer="2235" to-port="0"/>
		<edge from-layer="2234" from-port="0" to-layer="2235" to-port="1"/>
		<edge from-layer="2235" from-port="2" to-layer="2238" to-port="0"/>
		<edge from-layer="2236" from-port="0" to-layer="2238" to-port="1"/>
		<edge from-layer="2237" from-port="0" to-layer="2238" to-port="2"/>
		<edge from-layer="2238" from-port="3" to-layer="2240" to-port="0"/>
		<edge from-layer="2239" from-port="0" to-layer="2240" to-port="1"/>
		<edge from-layer="2240" from-port="2" to-layer="2242" to-port="0"/>
		<edge from-layer="2241" from-port="0" to-layer="2242" to-port="1"/>
		<edge from-layer="2242" from-port="2" to-layer="2244" to-port="0"/>
		<edge from-layer="2243" from-port="0" to-layer="2244" to-port="2"/>
		<edge from-layer="2244" from-port="3" to-layer="2257" to-port="0"/>
		<edge from-layer="2244" from-port="3" to-layer="2247" to-port="0"/>
		<edge from-layer="2245" from-port="0" to-layer="2256" to-port="0"/>
		<edge from-layer="2246" from-port="0" to-layer="2255" to-port="0"/>
		<edge from-layer="2247" from-port="1" to-layer="2262" to-port="0"/>
		<edge from-layer="2247" from-port="1" to-layer="2454" to-port="1"/>
		<edge from-layer="2247" from-port="1" to-layer="2250" to-port="0"/>
		<edge from-layer="2248" from-port="0" to-layer="2250" to-port="1"/>
		<edge from-layer="2249" from-port="0" to-layer="2250" to-port="2"/>
		<edge from-layer="2250" from-port="3" to-layer="2252" to-port="0"/>
		<edge from-layer="2251" from-port="0" to-layer="2252" to-port="1"/>
		<edge from-layer="2252" from-port="2" to-layer="2254" to-port="0"/>
		<edge from-layer="2253" from-port="0" to-layer="2254" to-port="1"/>
		<edge from-layer="2254" from-port="2" to-layer="2255" to-port="1"/>
		<edge from-layer="2255" from-port="2" to-layer="2256" to-port="1"/>
		<edge from-layer="2256" from-port="2" to-layer="2257" to-port="1"/>
		<edge from-layer="2257" from-port="2" to-layer="2269" to-port="0"/>
		<edge from-layer="2258" from-port="0" to-layer="2268" to-port="0"/>
		<edge from-layer="2259" from-port="0" to-layer="2267" to-port="0"/>
		<edge from-layer="2260" from-port="0" to-layer="2262" to-port="1"/>
		<edge from-layer="2261" from-port="0" to-layer="2262" to-port="2"/>
		<edge from-layer="2262" from-port="3" to-layer="2264" to-port="0"/>
		<edge from-layer="2263" from-port="0" to-layer="2264" to-port="1"/>
		<edge from-layer="2264" from-port="2" to-layer="2266" to-port="0"/>
		<edge from-layer="2265" from-port="0" to-layer="2266" to-port="1"/>
		<edge from-layer="2266" from-port="2" to-layer="2267" to-port="1"/>
		<edge from-layer="2267" from-port="2" to-layer="2268" to-port="1"/>
		<edge from-layer="2268" from-port="2" to-layer="2269" to-port="1"/>
		<edge from-layer="2269" from-port="2" to-layer="2288" to-port="0"/>
		<edge from-layer="2269" from-port="2" to-layer="2273" to-port="0"/>
		<edge from-layer="2269" from-port="2" to-layer="2355" to-port="0"/>
		<edge from-layer="2269" from-port="2" to-layer="2340" to-port="0"/>
		<edge from-layer="2270" from-port="0" to-layer="2273" to-port="1"/>
		<edge from-layer="2271" from-port="0" to-layer="2273" to-port="2"/>
		<edge from-layer="2272" from-port="0" to-layer="2273" to-port="3"/>
		<edge from-layer="2273" from-port="4" to-layer="2274" to-port="0"/>
		<edge from-layer="2273" from-port="4" to-layer="2292" to-port="1"/>
		<edge from-layer="2274" from-port="1" to-layer="2275" to-port="1"/>
		<edge from-layer="2275" from-port="2" to-layer="2293" to-port="0"/>
		<edge from-layer="2276" from-port="0" to-layer="2278" to-port="1"/>
		<edge from-layer="2277" from-port="0" to-layer="2278" to-port="2"/>
		<edge from-layer="2278" from-port="3" to-layer="2282" to-port="0"/>
		<edge from-layer="2279" from-port="0" to-layer="2281" to-port="1"/>
		<edge from-layer="2280" from-port="0" to-layer="2281" to-port="2"/>
		<edge from-layer="2281" from-port="3" to-layer="2282" to-port="1"/>
		<edge from-layer="2282" from-port="2" to-layer="2284" to-port="0"/>
		<edge from-layer="2283" from-port="0" to-layer="2284" to-port="1"/>
		<edge from-layer="2284" from-port="2" to-layer="2291" to-port="0"/>
		<edge from-layer="2285" from-port="0" to-layer="2288" to-port="1"/>
		<edge from-layer="2286" from-port="0" to-layer="2288" to-port="2"/>
		<edge from-layer="2287" from-port="0" to-layer="2288" to-port="3"/>
		<edge from-layer="2288" from-port="4" to-layer="2289" to-port="0"/>
		<edge from-layer="2289" from-port="1" to-layer="2290" to-port="0"/>
		<edge from-layer="2289" from-port="1" to-layer="2294" to-port="0"/>
		<edge from-layer="2290" from-port="1" to-layer="2291" to-port="1"/>
		<edge from-layer="2291" from-port="2" to-layer="2292" to-port="0"/>
		<edge from-layer="2291" from-port="2" to-layer="2295" to-port="0"/>
		<edge from-layer="2292" from-port="2" to-layer="2293" to-port="1"/>
		<edge from-layer="2293" from-port="2" to-layer="2395" to-port="0"/>
		<edge from-layer="2293" from-port="2" to-layer="2298" to-port="0"/>
		<edge from-layer="2294" from-port="1" to-layer="2295" to-port="1"/>
		<edge from-layer="2295" from-port="2" to-layer="2394" to-port="0"/>
		<edge from-layer="2295" from-port="2" to-layer="2297" to-port="0"/>
		<edge from-layer="2296" from-port="0" to-layer="2297" to-port="1"/>
		<edge from-layer="2297" from-port="2" to-layer="2298" to-port="1"/>
		<edge from-layer="2298" from-port="2" to-layer="2300" to-port="0"/>
		<edge from-layer="2298" from-port="2" to-layer="2302" to-port="0"/>
		<edge from-layer="2299" from-port="0" to-layer="2300" to-port="1"/>
		<edge from-layer="2300" from-port="2" to-layer="2306" to-port="0"/>
		<edge from-layer="2301" from-port="0" to-layer="2303" to-port="0"/>
		<edge from-layer="2302" from-port="1" to-layer="2303" to-port="1"/>
		<edge from-layer="2303" from-port="2" to-layer="2305" to-port="0"/>
		<edge from-layer="2304" from-port="0" to-layer="2305" to-port="1"/>
		<edge from-layer="2305" from-port="2" to-layer="2306" to-port="1"/>
		<edge from-layer="2306" from-port="2" to-layer="2308" to-port="0"/>
		<edge from-layer="2307" from-port="0" to-layer="2308" to-port="1"/>
		<edge from-layer="2308" from-port="2" to-layer="2317" to-port="0"/>
		<edge from-layer="2308" from-port="2" to-layer="2310" to-port="0"/>
		<edge from-layer="2309" from-port="0" to-layer="2310" to-port="1"/>
		<edge from-layer="2310" from-port="2" to-layer="2321" to-port="0"/>
		<edge from-layer="2311" from-port="0" to-layer="2313" to-port="1"/>
		<edge from-layer="2312" from-port="0" to-layer="2313" to-port="2"/>
		<edge from-layer="2313" from-port="3" to-layer="2314" to-port="0"/>
		<edge from-layer="2314" from-port="1" to-layer="2316" to-port="0"/>
		<edge from-layer="2315" from-port="0" to-layer="2316" to-port="1"/>
		<edge from-layer="2316" from-port="2" to-layer="2318" to-port="0"/>
		<edge from-layer="2317" from-port="1" to-layer="2318" to-port="1"/>
		<edge from-layer="2318" from-port="2" to-layer="2320" to-port="0"/>
		<edge from-layer="2319" from-port="0" to-layer="2320" to-port="1"/>
		<edge from-layer="2320" from-port="2" to-layer="2321" to-port="1"/>
		<edge from-layer="2321" from-port="2" to-layer="2323" to-port="0"/>
		<edge from-layer="2322" from-port="0" to-layer="2323" to-port="1"/>
		<edge from-layer="2323" from-port="2" to-layer="2325" to-port="0"/>
		<edge from-layer="2324" from-port="0" to-layer="2325" to-port="1"/>
		<edge from-layer="2325" from-port="2" to-layer="2453" to-port="0"/>
		<edge from-layer="2326" from-port="0" to-layer="2328" to-port="1"/>
		<edge from-layer="2327" from-port="0" to-layer="2328" to-port="2"/>
		<edge from-layer="2328" from-port="3" to-layer="2332" to-port="0"/>
		<edge from-layer="2329" from-port="0" to-layer="2331" to-port="1"/>
		<edge from-layer="2330" from-port="0" to-layer="2331" to-port="2"/>
		<edge from-layer="2331" from-port="3" to-layer="2332" to-port="1"/>
		<edge from-layer="2332" from-port="2" to-layer="2334" to-port="0"/>
		<edge from-layer="2333" from-port="0" to-layer="2334" to-port="1"/>
		<edge from-layer="2334" from-port="2" to-layer="2336" to-port="0"/>
		<edge from-layer="2335" from-port="0" to-layer="2336" to-port="1"/>
		<edge from-layer="2336" from-port="2" to-layer="2342" to-port="0"/>
		<edge from-layer="2337" from-port="0" to-layer="2340" to-port="1"/>
		<edge from-layer="2338" from-port="0" to-layer="2340" to-port="2"/>
		<edge from-layer="2339" from-port="0" to-layer="2340" to-port="3"/>
		<edge from-layer="2340" from-port="4" to-layer="2359" to-port="1"/>
		<edge from-layer="2340" from-port="4" to-layer="2341" to-port="0"/>
		<edge from-layer="2341" from-port="1" to-layer="2342" to-port="1"/>
		<edge from-layer="2342" from-port="2" to-layer="2360" to-port="0"/>
		<edge from-layer="2343" from-port="0" to-layer="2345" to-port="1"/>
		<edge from-layer="2344" from-port="0" to-layer="2345" to-port="2"/>
		<edge from-layer="2345" from-port="3" to-layer="2349" to-port="0"/>
		<edge from-layer="2346" from-port="0" to-layer="2348" to-port="1"/>
		<edge from-layer="2347" from-port="0" to-layer="2348" to-port="2"/>
		<edge from-layer="2348" from-port="3" to-layer="2349" to-port="1"/>
		<edge from-layer="2349" from-port="2" to-layer="2351" to-port="0"/>
		<edge from-layer="2350" from-port="0" to-layer="2351" to-port="1"/>
		<edge from-layer="2351" from-port="2" to-layer="2358" to-port="0"/>
		<edge from-layer="2352" from-port="0" to-layer="2355" to-port="1"/>
		<edge from-layer="2353" from-port="0" to-layer="2355" to-port="2"/>
		<edge from-layer="2354" from-port="0" to-layer="2355" to-port="3"/>
		<edge from-layer="2355" from-port="4" to-layer="2356" to-port="0"/>
		<edge from-layer="2356" from-port="1" to-layer="2357" to-port="0"/>
		<edge from-layer="2356" from-port="1" to-layer="2361" to-port="0"/>
		<edge from-layer="2357" from-port="1" to-layer="2358" to-port="1"/>
		<edge from-layer="2358" from-port="2" to-layer="2359" to-port="0"/>
		<edge from-layer="2358" from-port="2" to-layer="2362" to-port="0"/>
		<edge from-layer="2359" from-port="2" to-layer="2360" to-port="1"/>
		<edge from-layer="2360" from-port="2" to-layer="2365" to-port="0"/>
		<edge from-layer="2360" from-port="2" to-layer="2425" to-port="0"/>
		<edge from-layer="2361" from-port="1" to-layer="2362" to-port="1"/>
		<edge from-layer="2362" from-port="2" to-layer="2424" to-port="0"/>
		<edge from-layer="2362" from-port="2" to-layer="2364" to-port="0"/>
		<edge from-layer="2363" from-port="0" to-layer="2364" to-port="1"/>
		<edge from-layer="2364" from-port="2" to-layer="2365" to-port="1"/>
		<edge from-layer="2365" from-port="2" to-layer="2369" to-port="0"/>
		<edge from-layer="2365" from-port="2" to-layer="2367" to-port="0"/>
		<edge from-layer="2366" from-port="0" to-layer="2367" to-port="1"/>
		<edge from-layer="2367" from-port="2" to-layer="2373" to-port="0"/>
		<edge from-layer="2368" from-port="0" to-layer="2370" to-port="0"/>
		<edge from-layer="2369" from-port="1" to-layer="2370" to-port="1"/>
		<edge from-layer="2370" from-port="2" to-layer="2372" to-port="0"/>
		<edge from-layer="2371" from-port="0" to-layer="2372" to-port="1"/>
		<edge from-layer="2372" from-port="2" to-layer="2373" to-port="1"/>
		<edge from-layer="2373" from-port="2" to-layer="2375" to-port="0"/>
		<edge from-layer="2374" from-port="0" to-layer="2375" to-port="1"/>
		<edge from-layer="2375" from-port="2" to-layer="2377" to-port="0"/>
		<edge from-layer="2375" from-port="2" to-layer="2384" to-port="0"/>
		<edge from-layer="2376" from-port="0" to-layer="2377" to-port="1"/>
		<edge from-layer="2377" from-port="2" to-layer="2388" to-port="0"/>
		<edge from-layer="2378" from-port="0" to-layer="2380" to-port="1"/>
		<edge from-layer="2379" from-port="0" to-layer="2380" to-port="2"/>
		<edge from-layer="2380" from-port="3" to-layer="2381" to-port="0"/>
		<edge from-layer="2381" from-port="1" to-layer="2383" to-port="0"/>
		<edge from-layer="2382" from-port="0" to-layer="2383" to-port="1"/>
		<edge from-layer="2383" from-port="2" to-layer="2385" to-port="0"/>
		<edge from-layer="2384" from-port="1" to-layer="2385" to-port="1"/>
		<edge from-layer="2385" from-port="2" to-layer="2387" to-port="0"/>
		<edge from-layer="2386" from-port="0" to-layer="2387" to-port="1"/>
		<edge from-layer="2387" from-port="2" to-layer="2388" to-port="1"/>
		<edge from-layer="2388" from-port="2" to-layer="2390" to-port="0"/>
		<edge from-layer="2389" from-port="0" to-layer="2390" to-port="1"/>
		<edge from-layer="2390" from-port="2" to-layer="2392" to-port="0"/>
		<edge from-layer="2391" from-port="0" to-layer="2392" to-port="1"/>
		<edge from-layer="2392" from-port="2" to-layer="2453" to-port="1"/>
		<edge from-layer="2393" from-port="0" to-layer="2394" to-port="1"/>
		<edge from-layer="2394" from-port="2" to-layer="2395" to-port="1"/>
		<edge from-layer="2395" from-port="2" to-layer="2397" to-port="0"/>
		<edge from-layer="2395" from-port="2" to-layer="2399" to-port="0"/>
		<edge from-layer="2396" from-port="0" to-layer="2397" to-port="1"/>
		<edge from-layer="2397" from-port="2" to-layer="2403" to-port="0"/>
		<edge from-layer="2398" from-port="0" to-layer="2400" to-port="0"/>
		<edge from-layer="2399" from-port="1" to-layer="2400" to-port="1"/>
		<edge from-layer="2400" from-port="2" to-layer="2402" to-port="0"/>
		<edge from-layer="2401" from-port="0" to-layer="2402" to-port="1"/>
		<edge from-layer="2402" from-port="2" to-layer="2403" to-port="1"/>
		<edge from-layer="2403" from-port="2" to-layer="2405" to-port="0"/>
		<edge from-layer="2404" from-port="0" to-layer="2405" to-port="1"/>
		<edge from-layer="2405" from-port="2" to-layer="2414" to-port="0"/>
		<edge from-layer="2405" from-port="2" to-layer="2407" to-port="0"/>
		<edge from-layer="2406" from-port="0" to-layer="2407" to-port="1"/>
		<edge from-layer="2407" from-port="2" to-layer="2418" to-port="0"/>
		<edge from-layer="2408" from-port="0" to-layer="2410" to-port="1"/>
		<edge from-layer="2409" from-port="0" to-layer="2410" to-port="2"/>
		<edge from-layer="2410" from-port="3" to-layer="2411" to-port="0"/>
		<edge from-layer="2411" from-port="1" to-layer="2413" to-port="0"/>
		<edge from-layer="2412" from-port="0" to-layer="2413" to-port="1"/>
		<edge from-layer="2413" from-port="2" to-layer="2415" to-port="0"/>
		<edge from-layer="2414" from-port="1" to-layer="2415" to-port="1"/>
		<edge from-layer="2415" from-port="2" to-layer="2417" to-port="0"/>
		<edge from-layer="2416" from-port="0" to-layer="2417" to-port="1"/>
		<edge from-layer="2417" from-port="2" to-layer="2418" to-port="1"/>
		<edge from-layer="2418" from-port="2" to-layer="2420" to-port="0"/>
		<edge from-layer="2419" from-port="0" to-layer="2420" to-port="1"/>
		<edge from-layer="2420" from-port="2" to-layer="2422" to-port="0"/>
		<edge from-layer="2421" from-port="0" to-layer="2422" to-port="1"/>
		<edge from-layer="2422" from-port="2" to-layer="2453" to-port="2"/>
		<edge from-layer="2423" from-port="0" to-layer="2424" to-port="1"/>
		<edge from-layer="2424" from-port="2" to-layer="2425" to-port="1"/>
		<edge from-layer="2425" from-port="2" to-layer="2429" to-port="0"/>
		<edge from-layer="2425" from-port="2" to-layer="2427" to-port="0"/>
		<edge from-layer="2426" from-port="0" to-layer="2427" to-port="1"/>
		<edge from-layer="2427" from-port="2" to-layer="2433" to-port="0"/>
		<edge from-layer="2428" from-port="0" to-layer="2430" to-port="0"/>
		<edge from-layer="2429" from-port="1" to-layer="2430" to-port="1"/>
		<edge from-layer="2430" from-port="2" to-layer="2432" to-port="0"/>
		<edge from-layer="2431" from-port="0" to-layer="2432" to-port="1"/>
		<edge from-layer="2432" from-port="2" to-layer="2433" to-port="1"/>
		<edge from-layer="2433" from-port="2" to-layer="2435" to-port="0"/>
		<edge from-layer="2434" from-port="0" to-layer="2435" to-port="1"/>
		<edge from-layer="2435" from-port="2" to-layer="2444" to-port="0"/>
		<edge from-layer="2435" from-port="2" to-layer="2437" to-port="0"/>
		<edge from-layer="2436" from-port="0" to-layer="2437" to-port="1"/>
		<edge from-layer="2437" from-port="2" to-layer="2448" to-port="0"/>
		<edge from-layer="2438" from-port="0" to-layer="2440" to-port="1"/>
		<edge from-layer="2439" from-port="0" to-layer="2440" to-port="2"/>
		<edge from-layer="2440" from-port="3" to-layer="2441" to-port="0"/>
		<edge from-layer="2441" from-port="1" to-layer="2443" to-port="0"/>
		<edge from-layer="2442" from-port="0" to-layer="2443" to-port="1"/>
		<edge from-layer="2443" from-port="2" to-layer="2445" to-port="0"/>
		<edge from-layer="2444" from-port="1" to-layer="2445" to-port="1"/>
		<edge from-layer="2445" from-port="2" to-layer="2447" to-port="0"/>
		<edge from-layer="2446" from-port="0" to-layer="2447" to-port="1"/>
		<edge from-layer="2447" from-port="2" to-layer="2448" to-port="1"/>
		<edge from-layer="2448" from-port="2" to-layer="2450" to-port="0"/>
		<edge from-layer="2449" from-port="0" to-layer="2450" to-port="1"/>
		<edge from-layer="2450" from-port="2" to-layer="2452" to-port="0"/>
		<edge from-layer="2451" from-port="0" to-layer="2452" to-port="1"/>
		<edge from-layer="2452" from-port="2" to-layer="2453" to-port="3"/>
		<edge from-layer="2453" from-port="4" to-layer="2454" to-port="0"/>
		<edge from-layer="2454" from-port="2" to-layer="2455" to-port="4"/>
		<edge from-layer="2455" from-port="5" to-layer="2457" to-port="0"/>
		<edge from-layer="2456" from-port="0" to-layer="2457" to-port="1"/>
		<edge from-layer="2457" from-port="2" to-layer="2494" to-port="0"/>
		<edge from-layer="2458" from-port="0" to-layer="2459" to-port="2"/>
		<edge from-layer="2459" from-port="3" to-layer="2468" to-port="0"/>
		<edge from-layer="2460" from-port="0" to-layer="2461" to-port="2"/>
		<edge from-layer="2461" from-port="3" to-layer="2468" to-port="1"/>
		<edge from-layer="2462" from-port="0" to-layer="2463" to-port="2"/>
		<edge from-layer="2463" from-port="3" to-layer="2468" to-port="2"/>
		<edge from-layer="2464" from-port="0" to-layer="2465" to-port="2"/>
		<edge from-layer="2465" from-port="3" to-layer="2468" to-port="3"/>
		<edge from-layer="2466" from-port="0" to-layer="2467" to-port="2"/>
		<edge from-layer="2467" from-port="3" to-layer="2468" to-port="4"/>
		<edge from-layer="2468" from-port="5" to-layer="2484" to-port="0"/>
		<edge from-layer="2469" from-port="0" to-layer="2470" to-port="2"/>
		<edge from-layer="2470" from-port="3" to-layer="2479" to-port="0"/>
		<edge from-layer="2471" from-port="0" to-layer="2472" to-port="2"/>
		<edge from-layer="2472" from-port="3" to-layer="2479" to-port="1"/>
		<edge from-layer="2473" from-port="0" to-layer="2474" to-port="2"/>
		<edge from-layer="2474" from-port="3" to-layer="2479" to-port="2"/>
		<edge from-layer="2475" from-port="0" to-layer="2476" to-port="2"/>
		<edge from-layer="2476" from-port="3" to-layer="2479" to-port="3"/>
		<edge from-layer="2477" from-port="0" to-layer="2478" to-port="2"/>
		<edge from-layer="2478" from-port="3" to-layer="2479" to-port="4"/>
		<edge from-layer="2479" from-port="5" to-layer="2480" to-port="0"/>
		<edge from-layer="2479" from-port="5" to-layer="2483" to-port="0"/>
		<edge from-layer="2480" from-port="1" to-layer="2482" to-port="0"/>
		<edge from-layer="2481" from-port="0" to-layer="2482" to-port="1"/>
		<edge from-layer="2482" from-port="2" to-layer="2483" to-port="1"/>
		<edge from-layer="2483" from-port="2" to-layer="2484" to-port="1"/>
		<edge from-layer="2484" from-port="2" to-layer="2485" to-port="0"/>
		<edge from-layer="2484" from-port="2" to-layer="2520" to-port="0"/>
		<edge from-layer="2485" from-port="1" to-layer="2505" to-port="1"/>
		<edge from-layer="2485" from-port="1" to-layer="2500" to-port="0"/>
		<edge from-layer="2485" from-port="1" to-layer="2487" to-port="0"/>
		<edge from-layer="2486" from-port="0" to-layer="2487" to-port="1"/>
		<edge from-layer="2487" from-port="2" to-layer="2489" to-port="0"/>
		<edge from-layer="2488" from-port="0" to-layer="2489" to-port="1"/>
		<edge from-layer="2489" from-port="2" to-layer="2491" to-port="0"/>
		<edge from-layer="2489" from-port="2" to-layer="2493" to-port="2"/>
		<edge from-layer="2490" from-port="0" to-layer="2491" to-port="1"/>
		<edge from-layer="2491" from-port="2" to-layer="2493" to-port="0"/>
		<edge from-layer="2492" from-port="0" to-layer="2493" to-port="1"/>
		<edge from-layer="2493" from-port="3" to-layer="2494" to-port="1"/>
		<edge from-layer="2494" from-port="2" to-layer="2496" to-port="0"/>
		<edge from-layer="2495" from-port="0" to-layer="2496" to-port="1"/>
		<edge from-layer="2496" from-port="2" to-layer="2536" to-port="0"/>
		<edge from-layer="2496" from-port="2" to-layer="2516" to-port="0"/>
		<edge from-layer="2496" from-port="2" to-layer="2510" to-port="0"/>
		<edge from-layer="2497" from-port="0" to-layer="2502" to-port="0"/>
		<edge from-layer="2498" from-port="0" to-layer="2500" to-port="1"/>
		<edge from-layer="2499" from-port="0" to-layer="2500" to-port="2"/>
		<edge from-layer="2500" from-port="3" to-layer="2502" to-port="1"/>
		<edge from-layer="2501" from-port="0" to-layer="2502" to-port="2"/>
		<edge from-layer="2502" from-port="3" to-layer="2504" to-port="0"/>
		<edge from-layer="2503" from-port="0" to-layer="2504" to-port="1"/>
		<edge from-layer="2504" from-port="2" to-layer="2505" to-port="0"/>
		<edge from-layer="2505" from-port="2" to-layer="2507" to-port="0"/>
		<edge from-layer="2506" from-port="0" to-layer="2507" to-port="1"/>
		<edge from-layer="2507" from-port="2" to-layer="2554" to-port="0"/>
		<edge from-layer="2507" from-port="2" to-layer="2508" to-port="0"/>
		<edge from-layer="2508" from-port="1" to-layer="2513" to-port="0"/>
		<edge from-layer="2509" from-port="0" to-layer="2510" to-port="1"/>
		<edge from-layer="2510" from-port="2" to-layer="2512" to-port="0"/>
		<edge from-layer="2511" from-port="0" to-layer="2512" to-port="1"/>
		<edge from-layer="2512" from-port="2" to-layer="2513" to-port="1"/>
		<edge from-layer="2513" from-port="2" to-layer="2515" to-port="0"/>
		<edge from-layer="2514" from-port="0" to-layer="2515" to-port="1"/>
		<edge from-layer="2515" from-port="2" to-layer="2516" to-port="1"/>
		<edge from-layer="2516" from-port="2" to-layer="2518" to-port="0"/>
		<edge from-layer="2516" from-port="2" to-layer="2539" to-port="0"/>
		<edge from-layer="2517" from-port="0" to-layer="2518" to-port="1"/>
		<edge from-layer="2518" from-port="2" to-layer="2528" to-port="0"/>
		<edge from-layer="2519" from-port="0" to-layer="2520" to-port="1"/>
		<edge from-layer="2520" from-port="2" to-layer="2542" to-port="0"/>
		<edge from-layer="2520" from-port="2" to-layer="2522" to-port="0"/>
		<edge from-layer="2521" from-port="0" to-layer="2522" to-port="1"/>
		<edge from-layer="2522" from-port="2" to-layer="2524" to-port="0"/>
		<edge from-layer="2523" from-port="0" to-layer="2524" to-port="1"/>
		<edge from-layer="2524" from-port="2" to-layer="2528" to-port="1"/>
		<edge from-layer="2525" from-port="0" to-layer="2528" to-port="2"/>
		<edge from-layer="2526" from-port="0" to-layer="2528" to-port="3"/>
		<edge from-layer="2527" from-port="0" to-layer="2528" to-port="4"/>
		<edge from-layer="2528" from-port="5" to-layer="2531" to-port="0"/>
		<edge from-layer="2529" from-port="0" to-layer="2531" to-port="1"/>
		<edge from-layer="2530" from-port="0" to-layer="2531" to-port="2"/>
		<edge from-layer="2531" from-port="3" to-layer="2533" to-port="0"/>
		<edge from-layer="2532" from-port="0" to-layer="2533" to-port="1"/>
		<edge from-layer="2533" from-port="2" to-layer="2552" to-port="0"/>
		<edge from-layer="2533" from-port="2" to-layer="2537" to-port="0"/>
		<edge from-layer="2533" from-port="2" to-layer="2540" to-port="0"/>
		<edge from-layer="2533" from-port="2" to-layer="2534" to-port="0"/>
		<edge from-layer="2534" from-port="1" to-layer="2536" to-port="1"/>
		<edge from-layer="2535" from-port="0" to-layer="2536" to-port="2"/>
		<edge from-layer="2536" from-port="3" to-layer="2551" to-port="0"/>
		<edge from-layer="2537" from-port="1" to-layer="2539" to-port="1"/>
		<edge from-layer="2538" from-port="0" to-layer="2539" to-port="2"/>
		<edge from-layer="2539" from-port="3" to-layer="2545" to-port="0"/>
		<edge from-layer="2540" from-port="1" to-layer="2542" to-port="1"/>
		<edge from-layer="2541" from-port="0" to-layer="2542" to-port="2"/>
		<edge from-layer="2542" from-port="3" to-layer="2544" to-port="0"/>
		<edge from-layer="2543" from-port="0" to-layer="2544" to-port="1"/>
		<edge from-layer="2544" from-port="2" to-layer="2545" to-port="1"/>
		<edge from-layer="2545" from-port="2" to-layer="2548" to-port="0"/>
		<edge from-layer="2546" from-port="0" to-layer="2548" to-port="1"/>
		<edge from-layer="2547" from-port="0" to-layer="2548" to-port="2"/>
		<edge from-layer="2548" from-port="3" to-layer="2550" to-port="0"/>
		<edge from-layer="2549" from-port="0" to-layer="2550" to-port="1"/>
		<edge from-layer="2550" from-port="2" to-layer="2551" to-port="1"/>
		<edge from-layer="2551" from-port="2" to-layer="2558" to-port="0"/>
		<edge from-layer="2552" from-port="1" to-layer="2554" to-port="1"/>
		<edge from-layer="2553" from-port="0" to-layer="2554" to-port="2"/>
		<edge from-layer="2554" from-port="3" to-layer="2555" to-port="0"/>
		<edge from-layer="2555" from-port="1" to-layer="2557" to-port="0"/>
		<edge from-layer="2556" from-port="0" to-layer="2557" to-port="1"/>
		<edge from-layer="2557" from-port="2" to-layer="2558" to-port="1"/>
		<edge from-layer="2558" from-port="2" to-layer="2561" to-port="0"/>
		<edge from-layer="2558" from-port="2" to-layer="2569" to-port="0"/>
		<edge from-layer="2559" from-port="0" to-layer="2561" to-port="1"/>
		<edge from-layer="2560" from-port="0" to-layer="2561" to-port="2"/>
		<edge from-layer="2561" from-port="3" to-layer="2562" to-port="0"/>
		<edge from-layer="2562" from-port="1" to-layer="2564" to-port="0"/>
		<edge from-layer="2563" from-port="0" to-layer="2564" to-port="1"/>
		<edge from-layer="2564" from-port="2" to-layer="2565" to-port="0"/>
		<edge from-layer="2566" from-port="0" to-layer="2569" to-port="1"/>
		<edge from-layer="2567" from-port="0" to-layer="2569" to-port="2"/>
		<edge from-layer="2568" from-port="0" to-layer="2569" to-port="3"/>
		<edge from-layer="2569" from-port="4" to-layer="2570" to-port="0"/>
	</edges>
	<meta_data>
		<MO_version value="2022.1.0-7019-cdb9bec7210-releases/2022/1"/>
		<Runtime_version value="2022.1.0-7019-cdb9bec7210-releases/2022/1"/>
		<legacy_path value="False"/>
		<cli_parameters>
			<caffe_parser_path value="DIR"/>
			<compress_fp16 value="False"/>
			<data_type value="FP32"/>
			<disable_nhwc_to_nchw value="False"/>
			<disable_omitting_optional value="False"/>
			<disable_resnet_optimization value="False"/>
			<disable_weights_compression value="False"/>
			<enable_concat_optimization value="False"/>
			<enable_flattening_nested_params value="False"/>
			<enable_ssd_gluoncv value="False"/>
			<extensions value="DIR"/>
			<framework value="onnx"/>
			<freeze_placeholder_with_value value="{}"/>
			<input_model value="DIR/model.onnx"/>
			<input_model_is_text value="False"/>
			<input_shape value="[1, 3, 736, 992]"/>
			<k value="DIR/CustomLayersMapping.xml"/>
			<layout value="()"/>
			<layout_values value="{}"/>
			<legacy_mxnet_model value="False"/>
			<log_level value="ERROR"/>
			<mean_scale_values value="[(array([0., 0., 0.]), array([255., 255., 255.]))]"/>
			<mean_values value="[0, 0, 0]"/>
			<model_name value="model"/>
			<output value="['labels', 'boxes']"/>
			<output_dir value="DIR"/>
			<placeholder_data_types value="{}"/>
			<placeholder_shapes value="(1, 3, 736, 992)"/>
			<progress value="False"/>
			<remove_memory value="False"/>
			<remove_output_softmax value="False"/>
			<reverse_input_channels value="False"/>
			<save_params_from_nd value="False"/>
			<scale_values value="[255, 255, 255]"/>
			<silent value="False"/>
			<source_layout value="()"/>
			<static_shape value="False"/>
			<stream_output value="False"/>
			<target_layout value="()"/>
			<transform value=""/>
			<use_legacy_frontend value="False"/>
			<use_new_frontend value="False"/>
			<unset unset_cli_parameters="batch, counts, disable_fusing, finegrain_fusing, input, input_checkpoint, input_meta_graph, input_proto, input_symbol, mean_file, mean_file_offsets, nd_prefix_name, pretrained_model_name, saved_model_dir, saved_model_tags, scale, tensorboard_logdir, tensorflow_custom_layer_libraries, tensorflow_custom_operations_config_update, tensorflow_object_detection_api_pipeline_config, tensorflow_use_custom_operations_config, transformations_config"/>
		</cli_parameters>
	</meta_data>
</net>
